experiment_sources/power/classifier_medium.onnx (onnx, 14185 bytes, 4 tensors)

fc1.bias f4 [2]
000000 44 7a c3 be 93 1e 4e bf
       -0.3817922 -0.805154

fc2.bias f4 [2]
000000 7e cf 4a c0 44 e0 14 40
       -3.1689143 2.326188

onnx::MatMul_12 f4 [4, 2]
000000 50 40 c3 bd 03 d6 2c 40 a0 37 b3 be 1c 5b e5 3f
       -0.09533751 2.7005622 -0.35003376 1.7918429
000010 50 27 1b 3d fd af a1 bf 68 7b 75 be 8e 31 03 3e
       0.03787929 -1.2631832 -0.23972857 0.12811872

onnx::MatMul_13 f4 [2, 2]
000000 f2 a1 ea be 1f eb 1a bf 6f aa 36 40 2d 79 64 c0
       -0.4582668 -0.60515016 2.8541524 -3.569896
