experiment_sources/power/flow.onnx (onnx, 92834 bytes, 17 tensors)

trainable_layers.0.forth.bias f4 [5]
-0.13000086 0.9143458 -0.98806137 1.6645255 0.8824841
00000000: f21e 05be 9112 6a3f 97f1 7cbf 2c0f d53f
00000010: 7aea 613f

trainable_layers.1.conditioner.layers.0.bias f4 [5]
-0.50311446 1.2167243 0.8081979 -0.75809765 -0.006960556
00000000: 1ccc 00bf 9fbd 9b3f 0fe6 4e3f b012 42bf
00000010: 6015 e4bb

trainable_layers.1.conditioner.layers.1.bias f4 [5]
0.34687433 0.055240136 1.072072 -0.4020945 1.1405115
00000000: 8399 b13e 7b43 623d a839 893f 55df cdbe
00000010: 48fc 913f

trainable_layers.1.conditioner.layers.2.bias f4 [5]
-0.52914983 -0.06478161 -1.0207468 0.12501833 0.71831936
00000000: 5d76 07bf 39ac 84bd d5a7 82bf ce04 003e
00000010: c7e3 373f

trainable_layers.2.forth.bias f4 [5]
0.14659089 -1.1157458 -0.7097767 -0.15749602 1.4014031
00000000: ec1b 163e c2d0 8ebf edb3 35bf a346 21be
00000010: 2d61 b33f

trainable_layers.3.conditioner.layers.0.bias f4 [5]
-1.1042124 1.5073127 0.21438004 -0.3909155 -0.5250185
00000000: d556 8dbf 9fef c03f 7186 5b3e 1426 c8be
00000010: 9d67 06bf

trainable_layers.3.conditioner.layers.1.bias f4 [5]
-0.14797331 -0.111997955 1.3477021 -0.43580386 0.6810058
00000000: 5186 17be 2f5f e5bd 8181 ac3f af21 dfbe
00000010: 6556 2e3f

trainable_layers.3.conditioner.layers.2.bias f4 [5]
0.38313073 -0.95951074 0.31252116 -0.38587022 -0.43195963
00000000: b629 c43e 7fa2 75bf c602 a03e c890 c5be
00000010: d029 ddbe

trainable_layers.4.scale f4 [5]
0.27306867 -0.04604112 -0.09198555 0.07908475 0.08229126
00000000: a8cf 8b3e 9d95 3cbd ec62 bcbd 2ff7 a13d
00000010: 5288 a83d

onnx::MatMul_67 f4 [5, 5]
-0.39605403 -1.3291105 3.5015476 4.5055594 -1.7769401 1.0855558 2.6104941 -1.757662
-5.270402 3.27135 -0.22953998 -0.6792141 0.6632029 1.5388283 -0.9100828 -0.40753624
-1.5087918 1.4479929 1.4382136 -0.264028 1.9469389 1.542564 -0.64896864 1.593412
-1.0306225
00000000: 98c7 cabe 4b20 aabf 5b19 6040 8b2d 9040
00000010: c672 e3bf 7ef3 8a3f 5612 2740 12fb e0bf
00000020: 22a7 a8c0 cc5d 5140 870c 6bbe fae0 2dbf
00000030: aac7 293f 53f8 c43f 30fb 68bf 97a8 d0be
00000040: 1720 c1bf d557 b93f 6217 b83f ae2e 87be
00000050: 4b35 f93f bd72 c53f cf22 26bf edf4 cb3f
00000060: 70eb 83bf

onnx::MatMul_68 f4 [5, 5]
-0.22971353 -0.23253645 -0.28839922 -0.25114202 -0.13444208 -0.4809839 -0.1493732 -0.71206486
0.43282717 0.23797768 0.31699654 0.32722622 0.22592597 -0.2831505 -0.16619328 0.4702215
-0.03044584 0.74261785 -0.2978825 -0.22259717 0.18570526 -0.23144792 0.17212903 -0.30606225
0.12971815
00000000: 063a 6bbe 091e 6ebe 10a9 93be b095 80be
00000010: 2fab 09be 8643 f6be 4af5 18be e249 36bf
00000020: 869b dd3e 6cb0 733e 5f4d a23e 328a a73e
00000030: 2359 673e 1af9 90be 922e 2abe dfc0 f03e
00000040: 8e69 f9bc 341c 3e3f 0e84 98be 83f0 63be
00000050: 8529 3e3e af00 6dbe 9842 303e 31b4 9cbe
00000060: d6d4 043e

onnx::MatMul_69 f4 [5, 5]
-1.3187821 -2.1213534 -0.3202598 -0.02372182 0.29505974 0.6184244 -0.052192375 1.221495
0.26660287 1.0071467 1.0409354 1.2041976 0.036585677 -0.14251095 0.44220814 -1.3945496
0.18824121 -0.13947469 -0.2754861 -0.2908307 -3.9095013 -0.04008756 -0.10129076 -0.34051418
0.084676564
00000000: dacd a8bf 41c4 07c0 18f9 a3be 4354 c2bc
00000010: 1212 973e 1051 1e3f acc7 55bd f359 9c3f
00000020: 2c80 883e 2fea 803f 5f3d 853f 2623 9a3f
00000030: ddda 153d 64ee 11be 1b69 e23e 9a80 b2bf
00000040: 4ec2 403e 74d2 0ebe 840c 8dbe c3e7 94be
00000050: 4535 7ac0 da32 24bd 8871 cfbd e057 aebe
00000060: e86a ad3d

onnx::MatMul_70 f4 [5, 5]
1.0929302 -0.23006864 0.054615136 -0.41100717 -0.6060582 2.5368586 0.36235055 1.1456206
-0.060077894 -2.2091508 0.046086974 -0.09671983 -1.0105383 0.32321742 1.0127443 0.2719806
0.21308626 0.28499088 -0.41707322 0.27609402 0.18386137 -0.16182505 -1.0844014 0.4383429
0.08342135
00000000: 23e5 8b3f 1d97 6bbe 1fb4 5f3d 886f d2be
00000010: a126 1bbf e45b 2240 0386 b93e b2a3 923f
00000020: 3d14 76bd ba62 0dc0 b2c5 3c3d 0c15 c6bd
00000030: 5259 81bf c17c a53e 9ba1 813f 0b41 8b3e
00000040: 4933 5a3e 53ea 913e 9f8a d5be 325c 8d3e
00000050: 2846 3c3e 77b5 25be aacd 8abf 7b6e e03e
00000060: d0d8 aa3d

onnx::MatMul_71 f4 [5, 5]
0.4909006 -1.5668504 0.061786875 -0.5855354 -0.5187371 -0.33521366 0.6789386 -0.05703555
2.1530297 1.1480538 0.030945607 -0.4333785 0.834548 -0.8944986 -0.50813603 -0.030365225
1.3105303 0.25533557 1.5172907 0.58318293 0.31367654 0.79475486 0.33726475 0.8597429
1.0287683
00000000: 5357 fb3e 8e8e c8bf 3c14 7d3d a6e5 15bf
00000010: f4cb 04bf 20a1 abbe ecce 2d3f 1c9e 69bd
00000020: 3dcb 0940 6df3 923f a481 fd3c c9e3 ddbe
00000030: f0a4 553f dcfd 64bf 3415 02bf 7ec0 f8bc
00000040: 75bf a73f 58bb 823e 9536 c23f 7a4b 153f
00000050: 369a a03e 0e75 4b3f f7ad ac3e 1c18 5c3f
00000060: aeae 833f

onnx::MatMul_72 f4 [5, 5]
0.38083687 0.82032794 -1.0438322 -0.24103189 -0.16960408 -0.33756065 -0.38185722 0.06506481
-0.11589899 -0.25474492 -0.078929976 -0.18673488 0.21584739 0.36710334 -0.26135448 0.15423054
0.11215046 -0.4127987 -0.14745522 -0.046017863 0.95651454 0.5742281 0.26046532 -0.23215346
-0.019622298
00000000: 0dfd c23e 0301 523f 4b9c 85bf 10d1 76be
00000010: b1ac 2dbe c0d4 acbe ca82 c3be b340 853d
00000020: 735c edbd ed6d 82be 0aa6 a1bd 6e37 3fbe
00000030: 1907 5d3e f8f4 bb3e 41d0 85be 9cee 1d3e
00000040: 24af e53d 5a5a d3be 80fe 16be 3a7d 3cbd
00000050: 23de 743f 9d00 133f b65b 853e a3b9 6dbe
00000060: f1be a0bc

onnx::MatMul_73 f4 [5, 5]
-0.18946114 0.17589861 -2.2863863 -0.34274754 0.25346017 -0.25828275 0.093764074 0.88167244
-0.3905215 1.0527296 -0.020545544 -2.5584817 -0.26654717 0.15873566 1.3516653 0.035935815
0.29789287 0.14599618 -0.10086313 -0.050775696 -0.43056953 -0.13912572 -0.76531506 -0.20307954
0.1485912
00000000: 1a02 42be c41e 343e 2754 12c0 9b7c afbe
00000010: 88c5 813e a33d 84be 6107 c03d 49b5 613f
00000020: 6ff2 c7be d8bf 863f 214f a8bc 2abe 23c0
00000030: df78 88be 9a8b 223e 5e03 ad3f 6f31 133d
00000040: 6a85 983e 0680 153e 5491 cebd 2dfa 4fbd
00000050: 9c73 dcbe f976 0ebe b0eb 43bf 15f4 4fbe
00000060: 4b28 183e

onnx::MatMul_74 f4 [5, 5]
0.06813697 -0.16976368 0.00016622686 -0.07599079 0.38172644 0.371575 0.94104266 0.30546924
0.6559906 0.16902484 0.08561062 -1.2402167 0.10210034 0.8116685 -0.1700504 0.29489908
0.4198891 -0.10214721 -0.36746618 0.08886393 0.032762207 -0.6246991 -0.008217194 -0.2616494
0.1262823
00000000: 658b 8b3d 88d6 2dbe 2f4d 2e39 0fa1 9bbd
00000010: a671 c33e 143f be3e 2ce8 703f 7766 9c3e
00000020: 00ef 273f d914 2d3e 9f54 af3d 6cbf 9ebf
00000030: fc19 d13d 82c9 4f3f b121 2ebe 03fd 963e
00000040: b4fb d63e 8e32 d1bd 8724 bcbe 4bfe b53d
00000050: aa31 063d 48ec 1fbf 69a1 06bc e9f6 85be
00000060: 2650 013e
