experiment_sources/diabetes/classifier_medium.onnx (onnx, 9921 bytes, 4 tensors)

fc1.bias f4 [4]
000000 74 5b b0 be 28 4f 36 bf 63 5a 66 3f fe f4 08 be
       -0.34444773 -0.7121453 0.8998167 -0.13374707

fc2.bias f4 [2]
000000 3f bb 82 3f ff 21 8c be
       1.0213393 -0.27369687

onnx::MatMul_12 f4 [8, 4]
000000 8c 25 8c 3e 1e cb e8 3e 2d f0 83 be 8c 0d e0 be
       0.27372396 0.45467466 -0.25769177 -0.43760335
000010 96 d9 94 3e d4 8c 76 3f 42 35 10 bf a6 00 04 3f
       0.29072255 0.96308637 -0.56331265 0.5156349
000020 75 ac 87 be 7a 0d 3f 3d ee b7 17 3f 71 33 7e be
       -0.26498762 0.04664371 0.5926503 -0.24824311
000030 0b fb 6e 3d ab a3 48 3e 80 13 f0 bc 4b 80 cd be
       0.058344882 0.19593684 -0.029306173 -0.40136942
000040 ef 0c bf 3d 90 55 af 3d c3 59 cb bd 30 ab dc be
       0.09328639 0.085612416 -0.0992923 -0.43099356
000050 5c 4c 19 be bc 80 25 3f d4 d3 0a bf 61 14 38 3f
       -0.14970535 0.6464956 -0.54229474 0.71906096
000060 79 3c a0 be 28 e2 b1 3e bb 35 54 bf 3f e5 32 bf
       -0.31296137 0.34742856 -0.82894486 -0.6988105
000070 8c 47 ad 3d 24 a0 45 3e d2 1e 11 bf 2b a8 67 3c
       0.08460912 0.1929937 -0.56687653 0.014139215

onnx::MatMul_13 f4 [4, 2]
000000 78 d2 80 3e c4 8c 42 3c 8b 0c a8 bf 3e fe a3 3f
       0.25160575 0.011874381 -1.3128828 1.2811964
000010 bc 25 b0 3f ff 39 d3 bf 83 ab e4 bf 6a c8 b0 3f
       1.3761516 -1.6502074 -1.7864841 1.3811162
