experiment_sources/diabetes/classifier_tiny.onnx (onnx, 3971 bytes, 2 tensors)

fc1.bias f4 [2]
1.5117965 -1.3912947
00000000: 8c82 c13f f215 b2bf

onnx::MatMul_6 f4 [8, 2]
-0.6173728 0.67973393 -1.0982194 1.2142352 0.6221959 -0.7502055 0.3028118 0.14417274
-0.33602622 0.35714465 -0.7474097 0.8198374 -0.46712542 0.9960213 -0.83923143 0.7314285
00000000: 250c 1ebf 0b03 2e3f 7492 8cbf 0f6c 9b3f
00000010: 3b48 1f3f 780d 40bf 260a 9b3e 05a2 133e
00000020: a10b acbe aadb b63e 3e56 3fbf dde0 513f
00000030: 102b efbe 40fb 7e3f dfd7 56bf e63e 3b3f
