experiment_sources/wine/classifier_medium.onnx (onnx, 14462 bytes, 4 tensors)

fc1.bias f4 [6]
00000000: d6fc e23e 3e7a b33e ccfe 873e 31c9 bd3e
00000010: 65ea 36bc 8714 91be
0.44333524 0.350542 0.26561582 0.3706756 -0.011164282 -0.28335974

fc2.bias f4 [2]
00000000: 2b4c fc3d 5ddb 41be
0.123192154 -0.18931337

onnx::MatMul_12 f4 [11, 6]
00000000: 07fd 8cbc 1c2d 243e 8e89 c13e 9d62 f4bb
00000010: 77fd e53d f1ff a0be 81ba 2d3f 3789 fdbe
00000020: c6ae 35bf 84fc 8b3f b175 3e3f d851 50bb
00000030: 6cc1 e33e cbb6 213e 77c9 cf3e 03ab 893d
00000040: 8240 183d 673f 6ebe 2d24 fabe f23a 4d3f
00000050: 2c74 603f 7074 0fbf 77a0 15bf b17b 8dbe
00000060: b63d 8b3d 96c6 9b3d a1f1 06be 7803 cfbc
00000070: f482 1c3e 50fc 66bd 7d3b d0be a5ac 503f
00000080: 96f1 6b3f 497e 89be 8ddd 2a3c e796 37be
00000090: d53d 9b3e d599 803b 8f3a 97be f86b b43e
000000a0: 2d9a 1c3f ec27 9cbe 360f cf3e 114b c83d
000000b0: 0ccb eebd 2782 803e b84e 6a3e 6a21 54bc
000000c0: f206 3ebd e8a6 aa3d a09b ee3e f4a1 043e
000000d0: 048d adbd 5726 5e3e 4407 08bf f3f9 d83e
000000e0: 93a1 f33e a80a 66be 85a6 bcbe 708a 90be
000000f0: 3bb9 45bf fe2f 803f 053f 733f a7d4 54bf
00000100: be08 91be 3418 933e
-0.017210497 0.16032833 0.37800258 -0.0074580447 0.11229985 -0.31445268 0.6786271 -0.4951875
-0.7096981 1.0936437 0.7439833 -0.0031787064 0.44483507 0.15792386 0.40583393 0.06722071
0.037170894 -0.23266374 -0.48855725 0.8016807 0.87677264 -0.56037045 -0.58447975 -0.27633432
0.0679888 0.07606237 -0.13178112 -0.025270209 0.1528433 -0.056392968 -0.40670386 0.81513435
0.92165506 -0.2685416 0.010428798 -0.17928658 0.30320612 0.003924588 -0.29536864 0.35238624
0.61172754 -0.30499208 0.40441293 0.09779943 -0.11659822 0.25099298 0.22881591 -0.01294742
-0.046393342 0.08332616 0.46603107 0.12952405 -0.08474162 0.21694313 -0.53136086 0.42378196
0.4758421 -0.22465003 -0.36845794 -0.2823062 -0.77235764 1.0014646 0.95018035 -0.8313698
-0.28326982 0.28729403

onnx::MatMul_13 f4 [6, 2]
00000000: 92ee 73bf 28a5 a93f 088b 863e 81fa ebbe
00000010: 4203 563f 1bbb 19bf a1ff 5fbf 3f66 a33f
00000020: 26bc 84bf 7325 2b3f 3103 7abe bede 4a3e
-0.95285904 1.3253527 0.26277947 -0.46089557 0.8359872 -0.60051125 -0.87499434 1.2765578
-1.0369918 0.6685402 -0.2441528 0.19811532
