experiment_sources/wine/classifier_tiny.onnx (onnx, 6029 bytes, 2 tensors)

fc1.bias f4 [2]
-0.22954474 0.3536032
00000000: c70d 6bbe 7b0b b53e

onnx::MatMul_6 f4 [11, 2]
0.030705495 -0.03675455 -2.7362788 2.9950442 0.19393696 0.21856114 1.7386174 -1.8897979
-0.5431445 0.33179826 1.1900682 -1.4596943 -1.1218394 1.2533813 -0.70370704 0.77874124
0.3459715 -0.12372362 1.1560212 -1.4507321 2.882124 -2.6913412
00000000: 178a fb3c f08b 16bd 311f 2fc0 ceae 3f40
00000010: 6997 463e 7ece 5f3e 048b de3f e6e4 f1bf
00000020: 850b 0bbf 76e1 a93e 2854 983f 43d7 babf
00000030: 6f98 8fbf cc6e a03f 2526 34bf 965b 473f
00000040: 2d23 b13e cf62 fdbd 81f8 933f 97b1 b9bf
00000050: b874 3840 ef3e 2cc0
