experiment_sources/concrete/classifier_tiny.onnx (onnx, 3971 bytes, 2 tensors)

fc1.bias f4 [2]
000000 27 0e fa 3e 56 72 0f be
       0.48838922 -0.1400846

onnx::MatMul_6 f4 [8, 2]
000000 bd f1 14 c0 04 67 e2 3f 02 ea 3d bf 5e c3 2f 3f
       -2.3272545 1.7687688 -0.7418519 0.6865748
000010 78 28 90 3c 9b db a5 3d 49 65 d0 3f dc aa ba bf
       0.017597422 0.08098527 1.628091 -1.4583392
000020 93 03 d5 bf 8f c6 d2 3f 37 99 9e 3d 53 46 2c bf
       -1.6641716 1.6466845 0.07744067 -0.67294806
000030 a7 63 6e 3f 6e 8f a1 bf c8 e7 6d c0 92 3f 85 40
       0.9312081 -1.2621896 -3.7172718 4.16401
