experiment_sources/concrete/classifier_medium.onnx (onnx, 9921 bytes, 4 tensors)

fc1.bias f4 [4]
0.13733213 0.08930085 -0.2948617 -0.14360519
00000000: cba0 0c3e 5de3 b63d 1df8 96be 3d0d 13be

fc2.bias f4 [2]
-1.8124772 1.10251
00000000: 41ff e7bf 0c1f 8d3f

onnx::MatMul_12 f4 [8, 4]
-0.61170053 -0.7122792 -0.3431206 -0.34695274 -0.69324946 -0.017573697 -0.025037209 -0.29016405
-1.339023 0.2291409 -0.080081664 -0.086055346 0.108226836 1.0543895 0.22447811 0.23503043
-1.0176046 -0.24244024 0.25865334 -0.3148831 -0.017993534 0.35556453 0.0528127 0.07404101
1.1523287 0.59321123 -0.17571898 -0.08582076 -0.02659606 -4.7643094 0.13961974 0.1395515
00000000: 6898 1cbf ee57 36bf 81ad afbe caa3 b1be
00000010: cc78 31bf b7f6 8fbc d51a cdbc 6290 94be
00000020: 1b65 abbf e9a3 6a3e db01 a4bd c93d b0bd
00000030: 08a6 dd3d 3cf6 863f 97dd 653e d1ab 703e
00000040: de40 82bf 4142 78be 366e 843e 5c38 a1be
00000050: 2d67 93bc 8e0c b63e 2152 583d d0a2 973d
00000060: 827f 933f b1dc 173f adef 33be cbc2 afbd
00000070: fbdf d9bc 3975 98c0 7af8 0e3e 97e6 0e3e

onnx::MatMul_13 f4 [4, 2]
2.6789453 -2.344394 3.3107324 -3.6397305 0.315107 0.03496337 -0.13345295 0.44831526
00000000: d773 2b40 8d0a 16c0 0ae3 5340 58f1 68c0
00000010: b455 a13e c035 0f3d e4a7 08be 9489 e53e
