experiment_sources/wine/misc/checkpoint.pt (torch, 7266 bytes, 10 tensors)

trainable_layers.0.L_raw f4 [12, 12]
000000 00 00 80 3f 00 00 00 00 00 00 00 00 00 00 00 00
       1.0 0.0 0.0 0.0
000010 00 00 00 00 00 00 00 00 00 00 00 00 00 00 00 00
       0.0 0.0 0.0 0.0
000020 00 00 00 00 00 00 00 00 00 00 00 00 00 00 00 00
       0.0 0.0 0.0 0.0
000030 e6 66 8c be 00 00 80 3f 00 00 00 00 00 00 00 00
       -0.27422255 1.0 0.0 0.0
000040 00 00 00 00 00 00 00 00 00 00 00 00 00 00 00 00
       0.0 0.0 0.0 0.0
000050 00 00 00 00 00 00 00 00 00 00 00 00 00 00 00 00
       0.0 0.0 0.0 0.0
000060 93 8e d9 3e f7 da a3 3e 00 00 80 3f 00 00 00 00
       0.42491588 0.32002994 1.0 0.0
000070 00 00 00 00 00 00 00 00 00 00 00 00 00 00 00 00
       0.0 0.0 0.0 0.0
000080 00 00 00 00 00 00 00 00 00 00 00 00 00 00 00 00
       0.0 0.0 0.0 0.0
000090 94 05 c6 bd 32 05 35 bd ac 37 66 3d 00 00 80 3f
       -0.09669033 -0.044194408 0.056205437 1.0
0000a0 00 00 00 00 00 00 00 00 00 00 00 00 00 00 00 00
       0.0 0.0 0.0 0.0
0000b0 00 00 00 00 00 00 00 00 00 00 00 00 00 00 00 00
       0.0 0.0 0.0 0.0
0000c0 6e 3d 78 be 14 e2 9a 3e a6 13 57 3c a5 fa 8e 3d
       -0.24242184 0.3025061 0.013127243 0.069814004
0000d0 00 00 80 3f 00 00 00 00 00 00 00 00 00 00 00 00
       1.0 0.0 0.0 0.0
0000e0 00 00 00 00 00 00 00 00 00 00 00 00 00 00 00 00
       0.0 0.0 0.0 0.0
0000f0 aa e3 d1 be a6 23 4c 3e 54 6c 27 bf a1 bf 5b be
       -0.40994006 0.19935474 -0.6539967 -0.2145982
000100 b8 f8 42 3d 00 00 80 3f 00 00 00 00 00 00 00 00
       0.047600478 1.0 0.0 0.0
000110 00 00 00 00 00 00 00 00 00 00 00 00 00 00 00 00
       0.0 0.0 0.0 0.0
000120 ef e6 c2 3e 92 66 19 3f a6 b7 47 3d 0a 0a 88 be
       0.38066813 0.59922135 0.048759125 -0.2657016
000130 80 4f a8 bd 7f c8 3e 3f 00 00 80 3f 00 00 00 00
       -0.082182884 0.7452468 1.0 0.0
000140 00 00 00 00 00 00 00 00 00 00 00 00 00 00 00 00
       0.0 0.0 0.0 0.0
000150 f6 a0 42 bf b2 00 1a 3e d7 9f a8 3e 2e b5 3e 3f
       -0.76026857 0.15039328 0.32934448 0.7449521
000160 4b 22 4d 3d cb 81 e5 bd 8b 0e 16 3d 00 00 80 3f
       0.050081532 -0.11206397 0.036634963 1.0
000170 00 00 00 00 00 00 00 00 00 00 00 00 00 00 00 00
       0.0 0.0 0.0 0.0
000180 53 6b 89 3f dd 47 e5 3e c2 17 e2 3e 06 af 32 bf
       1.0735878 0.4478139 0.4415875 -0.69798315
000190 ca a5 e3 bd 62 35 2e 3f 82 26 66 bf 1d 76 05 bf
       -0.11115606 0.68050206 -0.8990251 -0.5213335
0001a0 00 00 80 3f 00 00 00 00 00 00 00 00 00 00 00 00
       1.0 0.0 0.0 0.0
0001b0 e9 57 00 bd 6e d4 2b 3f 5a 52 1a be e5 54 25 bf
       -0.031333838 0.67121017 -0.15070477 -0.64582664
0001c0 6d 3c 1c bd 41 a7 dd 3e 5b 3f 59 be 51 91 3c bf
       -0.038143564 0.43291667 -0.21215574 -0.73659235
0001d0 e6 9d 5b bf 00 00 80 3f 00 00 00 00 00 00 00 00
       -0.8578781 1.0 0.0 0.0
0001e0 22 84 84 3e 8f e3 c8 bd 1b a3 0a bd 08 b1 97 be
       0.2588206 -0.09809028 -0.033846956 -0.29627252
0001f0 be ee 05 3d 8f a9 03 3f 82 ec 94 bd cc 01 ae be
       0.032698385 0.514306 -0.07271673 -0.33985746
000200 c6 de 0e 3f 29 a7 1b 3d 00 00 80 3f 00 00 00 00
       0.55808675 0.038001213 1.0 0.0
000210 5d 35 a1 be 2d bc a7 3e 06 f5 d6 bd cd 88 f5 be
       -0.31486025 0.32760754 -0.10495953 -0.47955933
000220 13 85 79 3d 06 56 aa 3e 8f bc 25 be 02 9a f2 be
       0.060917925 0.33268756 -0.1618521 -0.47383124
000230 1a c8 08 bf 24 4b fc be b6 23 64 3e 00 00 80 3f
       -0.5343033 -0.49276078 0.22279248 1.0

trainable_layers.0.U_raw f4 [12, 12]
000000 ec 73 7d 3f ce 76 ac 3e 8d a6 1b 3e de ec 4e 3e
       0.9900501 0.3368439 0.15200253 0.20207545
000010 d9 5e 5b bd 1d 1a 95 3e 86 34 9d 3d 3a da f2 bd
       -0.05355725 0.29121485 0.07676034 -0.1185803
000020 93 0b 00 3e df a4 e6 3d ca b4 bb be 46 04 42 3d
       0.12504415 0.112619154 -0.3666137 0.047367357
000030 00 00 00 00 b6 6f 7d bf 10 b6 fd bd cf a7 f0 bd
       0.0 -0.9899858 -0.12388241 -0.11750757
000040 51 81 bd bd 20 5a 5f 3e 39 5b 82 3e 3d b7 18 be
       -0.09253181 0.21811724 0.25460222 -0.1491365
000050 e5 fd 3c bd 3c 41 25 be fa 3a 04 be 74 95 e8 bc
       -0.04614057 -0.16138166 -0.12913123 -0.028391577
000060 00 00 00 00 00 00 00 00 7b 18 7d bf eb f0 9c 3e
       0.0 0.0 -0.9886548 0.30652556
000070 4e 0e b0 3d 8e 2a d0 3e f4 37 29 bd b7 39 b4 3e
       0.085964784 0.40657467 -0.041313127 0.35200283
000080 53 f7 2d be 69 4c 8b be 78 bd 16 3e c0 74 c2 be
       -0.16988878 -0.27206734 0.14720714 -0.37979698
000090 00 00 00 00 00 00 00 00 00 00 00 00 a1 62 7d bf
       0.0 0.0 0.0 -0.9897862
0000a0 78 3b 6e bb c7 bd e2 3e 4e f1 22 ba f5 c4 b1 be
       -0.0036351364 0.44285414 -0.0006215767 -0.3472058
0000b0 12 8a e1 bd 58 dd d9 bc 55 16 91 3e 3b 1d a5 3d
       -0.11012663 -0.026594803 0.2833735 0.08062216
0000c0 00 00 00 00 00 00 00 00 00 00 00 00 00 00 00 00
       0.0 0.0 0.0 0.0
0000d0 96 56 7d bf 1a 00 92 3e 96 5d c2 bd 59 25 d1 be
       -0.98960245 0.28515702 -0.09490506 -0.40848807
0000e0 1b 2e 9f bd d2 5e 47 be 3d 93 2e 3e f8 68 5c 3e
       -0.07772466 -0.19469765 0.17048354 0.21524417
0000f0 00 00 00 00 00 00 00 00 00 00 00 00 00 00 00 00
       0.0 0.0 0.0 0.0
000100 00 00 00 00 79 68 7d 3f 52 72 5d 3e da 01 9b 3e
       0.0 0.9898754 0.21625641 0.3027485
000110 d6 a2 f0 be df 67 42 bc 6f 26 3f bd 6a 5c ea bd
       -0.46999234 -0.011865585 -0.046667513 -0.11443408
000120 00 00 00 00 00 00 00 00 00 00 00 00 00 00 00 00
       0.0 0.0 0.0 0.0
000130 00 00 00 00 00 00 00 00 c8 3d 7d 3f c4 c1 e0 3c
       0.0 0.0 0.98922396 0.027436145
000140 f8 00 15 3f 4d 55 50 be d8 4e 3d bd fe 03 55 bc
       0.58204603 -0.2034504 -0.04621777 -0.01300144
000150 00 00 00 00 00 00 00 00 00 00 00 00 00 00 00 00
       0.0 0.0 0.0 0.0
000160 00 00 00 00 00 00 00 00 00 00 00 00 b9 47 7d bf
       0.0 0.0 0.0 -0.98937565
000170 45 1f 2b bf ee 51 e9 bd 83 ee ad 3e 15 0b c8 3e
       -0.6684459 -0.1139258 0.33971033 0.39070955
000180 00 00 00 00 00 00 00 00 00 00 00 00 00 00 00 00
       0.0 0.0 0.0 0.0
000190 00 00 00 00 00 00 00 00 00 00 00 00 00 00 00 00
       0.0 0.0 0.0 0.0
0001a0 c3 5e 7d 3f f7 31 c5 be fc 7f c6 be e1 b6 9e 3e
       0.9897272 -0.38514683 -0.3876952 0.309989
0001b0 00 00 00 00 00 00 00 00 00 00 00 00 00 00 00 00
       0.0 0.0 0.0 0.0
0001c0 00 00 00 00 00 00 00 00 00 00 00 00 00 00 00 00
       0.0 0.0 0.0 0.0
0001d0 00 00 00 00 b1 2d 7d bf bf d1 f6 be 71 0a 49 3f
       0.0 -0.98897845 -0.482069 0.7853156
0001e0 00 00 00 00 00 00 00 00 00 00 00 00 00 00 00 00
       0.0 0.0 0.0 0.0
0001f0 00 00 00 00 00 00 00 00 00 00 00 00 00 00 00 00
       0.0 0.0 0.0 0.0
000200 00 00 00 00 00 00 00 00 a2 68 7d bf c2 17 8d be
       0.0 0.0 -0.9898778 -0.27557188
000210 00 00 00 00 00 00 00 00 00 00 00 00 00 00 00 00
       0.0 0.0 0.0 0.0
000220 00 00 00 00 00 00 00 00 00 00 00 00 00 00 00 00
       0.0 0.0 0.0 0.0
000230 00 00 00 00 00 00 00 00 00 00 00 00 99 8f 7d 3f
       0.0 0.0 0.0 0.9904724

trainable_layers.0.bias f4 [12]
000000 9c f4 be bd c3 54 00 3f bc ea 9a 3d f0 9b d3 be
       -0.09323999 0.50129336 0.07564303 -0.41329908
000010 46 90 d2 bd 3d 59 1f bf d1 9f 30 be bd 53 75 3f
       -0.10281424 -0.6224554 -0.17248465 0.958309
000020 9c 41 07 be 27 ea 43 bf f1 cd c0 be dd 39 0f 3f
       -0.13208622 -0.76529163 -0.3765712 0.5594767

trainable_layers.1.conditioner.layers.0.weight f4 [12, 12]
000000 32 01 ce bd 0c c1 5d 3e 6d 4b 0b 3e 28 02 65 3d
       -0.10058822 0.21655673 0.13602991 0.05591026
000010 d0 87 3d be cf dd 5c 3e 4c e9 75 be db bc d1 3e
       -0.1850884 0.21568988 -0.24014777 0.40964398
000020 7a 9d 1f 3e 0e 8c 83 3e 87 7f 20 3d 7b e9 a5 3e
       0.15587416 0.2569279 0.03918412 0.32404694
000030 c0 40 86 be 8e 8b 0f bb 79 a5 48 be 8e 13 13 be
       -0.26221275 -0.002190325 -0.19594373 -0.14362928
000040 08 5e 42 bd 5f da de be ba a7 6d 3d b9 97 9c 3e
       -0.047452956 -0.4352598 0.058021285 0.30584505
000050 69 90 59 3e 89 bc 91 3c 9e 83 98 bd 63 8a b2 3d
       0.21246494 0.017790096 -0.07446979 0.087178014
000060 f7 12 9c 3d 0c 5e 9a 3e 9c 92 7a be 82 91 94 bb
       0.07620805 0.30149877 -0.2446999 -0.0045339474
000070 e5 13 2a 3d 7a c4 79 bd cd b3 89 3e 0a 96 20 be
       0.04152288 -0.06097839 0.2689499 -0.15682235
000080 73 7f e1 bd 61 fc 74 be 3f 8b 46 3e 9c 08 5c 3e
       -0.11010637 -0.239244 0.19389056 0.21487659
000090 1b 4a 5f be bf 0a 6f 3e 22 ec 2b 3c 57 22 21 3e
       -0.21805613 0.23343943 0.01049331 0.15735756
0000a0 a7 01 a7 3c 02 4f 5e be 49 90 cf bc 00 8a 6f 3d
       0.02038653 -0.21709827 -0.025337355 0.058481216
0000b0 05 4d c4 3d 2c 02 6e 3d 0c dc 67 bd fb e8 85 3d
       0.09585003 0.05810754 -0.056606337 0.06538578
0000c0 2e 9c 2b be f6 a8 c0 be bc 82 7f 3e af 58 92 3e
       -0.16758797 -0.37628907 0.24952215 0.28583285
0000d0 99 0b 5e ba 92 78 9c bc 65 85 4c 3e 6f 59 1d 3f
       -0.0008470356 -0.019100461 0.19972761 0.6146459
0000e0 ef cb 69 3e 24 3c 47 be 92 6a 50 3e 10 95 2c 3e
       0.228317 -0.19456536 0.20353153 0.16853738
0000f0 a4 c8 5c 3d 6b 90 92 3e 1c 6a 9b bd 1b 7e 47 3d
       0.053902283 0.28625807 -0.07588598 0.048704248
000100 83 f9 14 be e8 28 ef 3d b6 aa 83 be 3b a5 3c 3d
       -0.14548306 0.11677724 -0.2571618 0.046056014
000110 5e ca 39 3d 70 ce 84 be ac f7 14 be 2c 0f 06 bd
       0.045359008 -0.2593875 -0.14547604 -0.032729313
000120 92 9e 8c be bf c7 a6 3e d2 dc 59 3e a5 6f ab 3d
       -0.2746473 0.3257427 0.21275643 0.08370904
000130 b9 96 7b be ef 0c ba bd df fd 18 be 39 2e ca bb
       -0.24569215 -0.09084498 -0.14940594 -0.006170061
000140 37 e4 cb bb f8 3e be bd 55 f5 c5 3d 39 eb 5d 3e
       -0.0062222737 -0.09289354 0.09665934 0.21671762
000150 50 20 8a be d5 70 24 3f 12 e6 c5 bd 99 87 ad 3e
       -0.26977777 0.6423467 -0.09663023 0.33892515
000160 dd 84 70 be fb 3f b0 3c 60 a6 a1 bd 3d 6e 37 3e
       -0.23488183 0.021514883 -0.07893062 0.17913146
000170 7a 81 ec bd c6 f7 24 3e b2 ff 5b 3e 69 9f 9f 3e
       -0.11548133 0.16110143 0.21484259 0.31176308
000180 ab 80 3e 3d 84 ee 9a bc a0 45 86 be 8b a9 38 3d
       0.046509426 -0.018912561 -0.26224995 0.045083564
000190 47 b4 6e be 8d 4e b3 3d 48 89 7b 3e b4 4d 6e 3e
       -0.23310958 0.08755217 0.24564087 0.23271829
0001a0 93 e3 4a 3e 77 1e cd be 72 43 9e 3d 28 4b 97 bd
       0.19813375 -0.40062305 0.07727708 -0.07387382
0001b0 c6 22 ec bd de d2 9a 3e 7f d7 ff bd 86 b8 00 3f
       -0.1153007 0.30239004 -0.124922745 0.5028156
0001c0 87 4d 80 3c cf 65 76 3e dc 14 80 be 90 36 03 3f
       0.015661968 0.24062274 -0.25015914 0.5125513
0001d0 d8 dd 16 bb dd 82 24 be 1a bb 93 3e 99 a3 4b bd
       -0.0023020413 -0.16065545 0.28853685 -0.049716566
0001e0 bf ae 0b 3e 57 17 2b be 19 eb 31 be 48 6d ec bd
       0.13640879 -0.16708122 -0.17374839 -0.11544281
0001f0 4d 28 74 bd 34 db 35 3e e5 08 97 3d b7 a7 06 be
       -0.059608746 0.177594 0.07374743 -0.13149916
000200 d8 02 bf 3d 39 82 a2 bd de 53 ed bc 6d 4c 8b 3e
       0.09326714 -0.07934994 -0.028970655 0.27206746
000210 11 35 eb 3d 30 56 ee bd ec 39 23 be 2e 88 15 3f
       0.11484731 -0.11637533 -0.15940064 0.5841092
000220 0a 95 d9 3d ff 8e 68 3e 32 5e 6c be c0 4b 9f 3e
       0.1062413 0.22710799 -0.23082808 0.3111248
000230 8c 7d a6 3d ea d8 a7 be c4 d2 8b 3e 6f 3a 34 3e
       0.08129415 -0.3278268 0.2730924 0.17600416

trainable_layers.1.conditioner.layers.0.bias f4 [12]
000000 1a 61 8c 3e a4 f0 cb bd 2c 7d a8 3c 40 ea 7f 3e
       0.27417833 -0.09958008 0.0205675 0.24991703
000010 fd 8f a3 3e 0a 83 01 3b 7d 6b 23 be 19 7a 4e be
       0.31945792 0.0019761943 -0.15958972 -0.20163764
000020 20 28 c4 3d a3 a4 0c bf b2 3f 03 3f d3 b7 f5 3e
       0.09577966 -0.54938716 0.51269066 0.4799181

trainable_layers.1.conditioner.layers.1.weight f4 [12, 12]
000000 7e 0a 6d bd 14 52 bb 3e 7c f6 44 be 7c 8a c6 3e
       -0.057871334 0.36586058 -0.19234651 0.3877753
000010 5f 33 ba 3e e6 85 3f be b0 fd 9a 3d e0 81 85 3e
       0.36367318 -0.18703422 0.07567918 0.2607565
000020 2d 43 bf 3d b7 0c bb be 5e 1f b6 be 74 29 aa 3d
       0.09338985 -0.36533138 -0.35570806 0.08308688
000030 53 f0 58 be 16 96 52 3e 1c 19 f9 3d 7a 28 88 3e
       -0.21185426 0.20565066 0.12162992 0.2659338
000040 75 6b 30 3e 58 6b a9 3e 2d f5 b7 3d 32 a4 ac 3e
       0.17228492 0.3308971 0.089823104 0.3371902
000050 19 af 88 be 62 6b 11 be be 58 8f be 2f 3c 3e be
       -0.2669609 -0.1420112 -0.27997392 -0.18577646
000060 11 60 de bd 06 9c 4c 3e 44 e5 a7 bd e6 35 03 bd
       -0.10858167 0.19981393 -0.08198026 -0.032033823
000070 44 f9 73 3e 02 98 90 3e 1f d8 76 be 9d 4b b7 be
       0.23825556 0.28240973 -0.24105881 -0.35799876
000080 c5 28 cd 3e 9b d9 55 3b e8 04 20 3e ac 64 de 3e
       0.40070167 0.0032630924 0.15626872 0.43436182
000090 ba d8 04 3e 57 78 bf bd ee d4 35 3e 99 75 10 3e
       0.129733 -0.09349125 0.17757007 0.1410736
0000a0 0c 47 3d be 28 ea 07 be 20 ff 49 be ba 77 31 be
       -0.18484133 -0.13272917 -0.19726229 -0.17330828
0000b0 77 24 40 3e 81 fa 6d be 3c ca cb bc 51 88 ec bd
       0.1876391 -0.23240091 -0.024876706 -0.11549438
0000c0 90 d9 f8 bd 7b e9 3c 3e 3b 08 96 be 90 d7 78 3d
       -0.12150872 0.1844844 -0.29303154 0.06075245
0000d0 23 90 b7 3e e3 0b 4d 3d 3e af 93 be 81 96 eb be
       0.35852155 0.050060164 -0.28844637 -0.46013263
0000e0 a8 0a 83 3c f0 61 84 3e 23 ff b8 3e 38 da 1f be
       0.015996292 0.2585597 0.36132154 -0.15610588
0000f0 b0 65 d8 3e 99 2b 68 3b de 5a 44 be ae 3c 02 bd
       0.4226508 0.0035426377 -0.19175288 -0.03179615
000100 67 0c 82 3e 8b eb f1 bc 6b d0 05 3e e8 ec 9a 3e
       0.25400087 -0.029531261 0.13067786 0.3025887
000110 d7 e7 ab be 01 b0 40 3f f3 1a 25 3e e3 d1 1f 3e
       -0.33575317 0.7526856 0.16123562 0.15607409
000120 46 45 4c 3e 5a a0 91 3e a6 51 c4 bd ae 61 30 3e
       0.199483 0.2844265 -0.09585886 0.17224762
000130 63 ef 5e bc 77 01 47 be e9 66 ea 3d 57 58 cb be
       -0.013606879 -0.19434153 0.1144541 -0.39715835
000140 3a 3d 1e 3d 6a 25 81 bf 69 d5 f5 bc 42 00 36 bd
       0.03863261 -1.0089543 -0.030008988 -0.04443384
000150 a0 f9 94 3e f9 9f 70 bd 31 57 cc be 59 77 a3 3c
       0.290967 -0.05874631 -0.39910272 0.01995437
000160 33 5b 2c 3f 2e 2e 57 bd f9 ed b0 be ee ad fa 3d
       0.6732666 -0.052534275 -0.3455656 0.12240206
000170 8f 63 d5 3e 4c 05 9f be a0 5b de 3d 46 29 e3 3e
       0.4167752 -0.3105873 0.1085732 0.44367427
000180 fd 55 b4 3e d5 b1 8e 3e b8 17 14 3e 4d c1 46 3a
       0.35221854 0.2787005 0.14462173 0.00075819046
000190 8a 5f 01 bd 51 40 07 be 01 60 d7 3e 69 bf 93 bd
       -0.031585254 -0.13208129 0.42065433 -0.07214243
0001a0 e8 9f 80 be 15 4c 54 bf 88 c7 9c bd 89 9c 96 3e
       -0.25122 -0.8292859 -0.07655245 0.29416302
0001b0 9c 8b a8 3d 00 46 c6 3d a9 f7 86 be 8e b4 62 bd
       0.082297534 0.0968132 -0.26360825 -0.05534797
0001c0 cb 47 31 bd 79 ff 8f 3e 9c 13 af 3d 9f cd 1c bd
       -0.043281358 0.28124598 0.08548662 -0.038282033
0001d0 05 c7 f2 3d 05 f9 d4 bf b5 82 94 bd 2c 96 0a 3e
       0.11854366 -1.6638495 -0.07251493 0.13533849
0001e0 df 68 10 be fa a8 e6 be d2 47 3d 3e 3d 15 49 3e
       -0.14102505 -0.45050794 0.18484429 0.19637008
0001f0 8b 32 86 3e 8e 6f 87 bc 85 fb 79 3c 68 05 60 be
       0.26210436 -0.016532686 0.015257721 -0.21877062
000200 46 3c be bd 6a d8 4c bd 7f 08 c3 3e 66 ca 0e 3f
       -0.0928884 -0.050011076 0.3809242 0.55777586
000210 cf 94 06 be e2 fe 62 3b f9 7e c1 bd 0e 25 dc 3d
       -0.13142703 0.0034636785 -0.09448046 0.10749255
000220 19 4c f8 bc fe 5f 82 be 3c 59 f9 bd 8d 07 d9 3d
       -0.030309724 -0.2546386 -0.12175223 0.10597143
000230 15 e9 8b be 7c 27 0c 3e 22 95 94 3d 50 3a 4c bd
       -0.27326265 0.13686937 0.07255007 -0.0498603

trainable_layers.1.conditioner.layers.1.bias f4 [12]
000000 eb 65 a1 bd fe 5e fa 3d 2e 47 89 3e 22 92 37 be
       -0.078807674 0.122251496 0.26812118 -0.17926839
000010 77 44 1e 3f b2 7e 74 be fb 9a 87 3e af c3 82 3e
       0.6182322 -0.23876455 0.26485428 0.2553992
000020 07 c5 7f bd 99 53 84 3e 44 d0 cb 3d df 87 84 be
       -0.06244376 0.2584503 0.09951833 -0.2588491

trainable_layers.1.conditioner.layers.2.weight f4 [12, 12]
000000 7a 84 6b be f1 f7 0e be 87 63 4c be 85 48 1f 3e
       -0.22999755 -0.1396177 -0.19959842 0.15555008
000010 e5 c8 10 bf e1 a2 14 be fc 14 dd be 56 20 3d be
       -0.5655654 -0.14515258 -0.43180072 -0.18469366
000020 b7 29 25 3e 6c b0 8b 3e 16 4b 63 3e 95 3f 87 be
       0.16129194 0.27283037 0.22196612 -0.26415697
000030 4e cd 8a be ab 9f 2b bd aa 60 da 3d d5 be fb bd
       -0.2710976 -0.041900318 0.106629685 -0.12292258
000040 b2 a3 df bd 98 1b 7b 3e 28 b0 c0 3c f6 c9 69 3e
       -0.10919894 0.24522245 0.023521498 0.22830948
000050 87 d2 8c be de b0 e2 bd e3 b9 30 be 9b f2 f3 bc
       -0.2750437 -0.11068891 -0.1725841 -0.02977877
000060 b5 9e 85 3e 4a 39 c8 3e 4d bf ab be 79 d1 cd 3d
       0.26097646 0.39106208 -0.33544388 0.10049719
000070 e1 4a e7 be 82 b4 65 3e d0 96 8f 3e f8 fa 16 be
       -0.45174316 0.2243214 0.28044748 -0.14744174
000080 f1 0c c8 3e e6 82 f6 be d6 c5 bf be 54 a2 b2 bd
       0.39072374 -0.48146743 -0.37455624 -0.08722368
000090 d4 07 e3 bb 94 8c 4f 3e fc 24 60 be f5 f9 4a bd
       -0.0069284234 0.2026847 -0.21889108 -0.049554784
0000a0 60 b1 4e 3e d1 3a ad bd 8a 4a 46 3e 45 72 15 be
       0.2018485 -0.08458484 0.19364372 -0.14594372
0000b0 19 8a e7 3c e4 eb 13 be 79 fe 2c 3e 91 a8 c6 bd
       0.028264092 -0.14445454 0.16893949 -0.0970012
0000c0 c2 e0 40 3e 7c a5 43 3e 11 49 3b be b0 7d b6 3d
       0.18835738 0.19106096 -0.18289591 0.08910692
0000d0 fb 82 35 bb e2 8b f8 be 9f fc a3 3e b4 7e a7 be
       -0.0027696479 -0.48544222 0.32028672 -0.32713854
0000e0 f0 7f 50 3e 21 6e ac 3e 51 ac 5e be e1 80 4d bc
       0.20361304 0.33677772 -0.21745421 -0.012542934
0000f0 10 b2 36 3e c1 f6 00 3e 5a 2e e5 bd c9 85 81 bd
       0.17841363 0.12594129 -0.111904815 -0.063243456
000100 4d c6 fc bd 65 83 1d 3e b2 30 23 be d4 53 78 be
       -0.1234251 0.15382154 -0.15936545 -0.24250728
000110 9b 46 38 3d 0d e3 6f 3e 26 a3 8c bd 67 b8 88 3e
       0.04498921 0.23426457 -0.068670556 0.26703188
000120 c4 67 22 3e 9b d5 92 3d 34 11 8e 3e f8 6e 8a bd
       0.15859896 0.07169648 0.277475 -0.06759447
000130 2d 95 10 3e b5 2c d9 be ac a4 c9 3e 66 d4 a7 3d
       0.14119406 -0.4241692 0.39383447 0.08194809
000140 98 55 b5 3e b9 38 18 3f a4 a5 3e 3d b3 68 3d be
       0.35416865 0.5946155 0.046544686 -0.18496971
000150 41 52 3e be 4a 21 b2 bd 4d 1c 8f 3e 99 a2 4d be
       -0.18586065 -0.08697756 0.2795128 -0.20081557
000160 14 6e 4e be 4f 70 52 be 8e 8b 55 be cf 12 91 be
       -0.20159179 -0.20550655 -0.20854017 -0.28334662
000170 08 56 bb bc 8d 64 ca bd fe 80 ee 3d f0 28 15 bd
       -0.022868171 -0.0988246 0.11645697 -0.036415994
000180 b4 d8 f8 bc a2 18 90 3e a2 d1 82 be 1f 02 87 3e
       -0.03037677 0.28143793 -0.25550562 0.26368806
000190 2e 4c 59 3c 52 6c a2 be 3c 4c 10 be 1a 65 c8 be
       0.013262792 -0.31723267 -0.14091581 -0.39139634
0001a0 36 10 4b be f0 53 92 3e 4b 6d cd be 49 b8 b5 3b
       -0.19830403 0.28579664 -0.40122446 0.00554565
0001b0 5d d3 3f be 2f eb 4f 3e 45 66 6c 3e 5c bb d8 3b
       -0.18732972 0.20304559 0.23085888 0.006614132
0001c0 2b f9 87 bd 94 fa 3f 3e 8c 80 c5 bd 84 3a b7 3d
       -0.06639322 0.18747932 -0.09643659 0.08946708
0001d0 c8 b4 15 3e 47 b9 b6 bd 25 1f 27 3e ee bf 8b 3e
       0.14619744 -0.089220576 0.16320474 0.27294868
0001e0 3e 4e 23 3f 9e f5 df 3d d7 32 9d be 4e 75 6a 3e
       0.63791263 0.1093552 -0.3070285 0.2289631
0001f0 4f 3c 9b be 66 97 16 be 57 15 ee 3e 89 0b ab 3d
       -0.3031945 -0.14706191 0.46500656 0.083518095
000200 6e 29 d2 3e 06 a0 7c 3e a6 6c cb be 59 a1 93 bb
       0.41047233 0.24670419 -0.3973133 -0.004505318
000210 a9 c2 b4 3d 0a 69 fc bd 34 b7 28 3e 9f 5d e6 3d
       0.08826191 -0.12324722 0.16476136 0.112483256
000220 15 6f 91 3c 27 6d 2b bd 0e 2b 14 3e bf 90 73 3e
       0.017753163 -0.041852143 0.14469549 0.23785685
000230 8b 8c 8a be 13 3c 73 be 96 50 58 3d a4 be 78 3e
       -0.2706035 -0.23753385 0.052811228 0.24291474

trainable_layers.1.conditioner.layers.2.bias f4 [12]
000000 7b 04 8a 3d 75 65 14 be 24 88 83 bd a4 35 18 3e
       0.06739136 -0.14491828 -0.06422451 0.14864212
000010 12 94 77 be 22 bd 2c 3e be ff f0 3c c4 82 77 be
       -0.24177578 0.16869023 0.029418822 -0.24170977
000020 a1 42 16 3e f2 6b 24 3e c7 f3 f8 be 7e 24 da bc
       0.14673854 0.16056803 -0.48623487 -0.026628729

trainable_layers.2.scale f4 [12]
000000 1b 4e 88 be bb 9d 87 3e b3 15 89 be 36 21 24 be
       -0.2662209 0.26487526 -0.26774368 -0.16028294
000010 25 66 c2 bd 63 bf 32 be a3 a1 a4 3e 53 ba 04 3e
       -0.09492139 -0.1745582 0.3215457 0.12961702
000020 f9 58 be be 2a 75 4c be 42 5b f6 be 59 f9 df 3e
       -0.37177256 -0.1996657 -0.481165 0.43744925
