experiment_sources/wine/misc/forward.onnx (onnx, 55436 bytes, 9 tensors)

trainable_layers.0.forth.bias f4 [12]
-0.09323999 0.50129336 0.07564303 -0.41329908 -0.10281424 -0.6224554 -0.17248465 0.958309
-0.13208622 -0.76529163 -0.3765712 0.5594767
00000000: 9cf4 bebd c354 003f bcea 9a3d f09b d3be
00000010: 4690 d2bd 3d59 1fbf d19f 30be bd53 753f
00000020: 9c41 07be 27ea 43bf f1cd c0be dd39 0f3f

trainable_layers.1.conditioner.layers.0.bias f4 [12]
0.27417833 -0.09958008 0.0205675 0.24991703 0.31945792 0.0019761943 -0.15958972 -0.20163764
0.09577966 -0.54938716 0.51269066 0.4799181
00000000: 1a61 8c3e a4f0 cbbd 2c7d a83c 40ea 7f3e
00000010: fd8f a33e 0a83 013b 7d6b 23be 197a 4ebe
00000020: 2028 c43d a3a4 0cbf b23f 033f d3b7 f53e

trainable_layers.1.conditioner.layers.1.bias f4 [12]
-0.078807674 0.122251496 0.26812118 -0.17926839 0.6182322 -0.23876455 0.26485428 0.2553992
-0.06244376 0.2584503 0.09951833 -0.2588491
00000000: eb65 a1bd fe5e fa3d 2e47 893e 2292 37be
00000010: 7744 1e3f b27e 74be fb9a 873e afc3 823e
00000020: 07c5 7fbd 9953 843e 44d0 cb3d df87 84be

trainable_layers.1.conditioner.layers.2.bias f4 [12]
0.06739136 -0.14491828 -0.06422451 0.14864212 -0.24177578 0.16869023 0.029418822 -0.24170977
0.14673854 0.16056803 -0.48623487 -0.026628729
00000000: 7b04 8a3d 7565 14be 2488 83bd a435 183e
00000010: 1294 77be 22bd 2c3e beff f03c c482 77be
00000020: a142 163e f26b 243e c7f3 f8be 7e24 dabc

trainable_layers.2.scale f4 [12]
-0.2662209 0.26487526 -0.26774368 -0.16028294 -0.09492139 -0.1745582 0.3215457 0.12961702
-0.37177256 -0.1996657 -0.481165 0.43744925
00000000: 1b4e 88be bb9d 873e b315 89be 3621 24be
00000010: 2566 c2bd 63bf 32be a3a1 a43e 53ba 043e
00000020: f958 bebe 2a75 4cbe 425b f6be 59f9 df3e

onnx::MatMul_35 f4 [12, 12]
0.96072567 -0.19232161 0.24584422 -0.119605236 -0.16310322 -0.2464647 0.06242394 -0.57421887
-0.8366976 0.42134887 -0.44518042 -0.32648572 0.403983 -1.0934759 0.31733176 -0.22607894
0.082720704 -0.34655958 -0.26479203 -0.40301102 -0.020842485 0.22768076 -0.19763607 -1.0932432
0.16367851 0.11380137 -0.065391816 0.044411298 -0.32918045 0.053406682 -0.081858404 -0.047895636
-0.82186437 0.027649933 0.09004353 -2.0970168 0.31181002 0.050756007 -0.22408624 -1.2006145
-0.13897479 0.11124934 -0.0137736015 0.7994371 0.17304356 0.009563803 0.09443703 0.39674878
-0.048120465 0.08969264 -0.10400064 0.012413721 -0.97042847 0.020534107 0.013524904 0.086948775
0.14919378 -0.10863976 0.09355395 0.20953844 -0.20726831 -0.04765853 1.2275518 0.45293552
0.098689884 0.7235663 -0.4131957 -0.39012727 -0.60269576 -0.063701905 0.2812012 -1.925395
-0.15654843 0.14188524 -0.3493978 0.09275819 0.1611213 0.18901953 0.69394696 0.19777997
0.54227084 -0.07088551 0.13913772 1.1931634 -0.38267845 0.14313391 -0.5221896 0.34651974
0.54961175 0.30330825 0.04113524 -0.60097003 -0.021331495 0.057945583 -0.37914562 1.3476948
-0.12859175 -0.14894015 -0.05858639 0.32436907 0.4373746 0.56021804 -0.42936867 0.0584369
0.72694576 -0.13639808 0.29074782 1.0991046 0.24528927 0.031239782 -0.03017132 -0.25432086
-0.08258079 -0.3324789 0.11762169 0.5103304 -0.41631275 -0.5593503 -0.102488995 0.5060486
-0.3665566 0.23570608 -0.33251682 -0.20388225 -0.16001426 -0.08926809 0.1319461 -0.31810784
-0.1905041 0.28328836 -0.9476059 -0.22493558 -0.10588595 -0.018758526 -0.66480243 -0.11444954
-0.13724713 -0.034859292 0.2225784 0.23533541 -0.061025262 0.9387098 -0.2810677 1.0096194
00000000: 1ef2 753f f5ef 44be 96be 7b3e 97f3 f4bd
00000010: 8804 27be 3e61 7cbe 3fb0 7f3d 0200 13bf
00000020: d031 56bf 0abb d73e b0ee e3be 2329 a7be
00000030: dcd6 ce3e 05f7 8bbf 4f79 a23e 3d81 67be
00000040: 7969 a93d 4270 b1be d292 87be 7657 cebe
00000050: dcbd aabc 2525 693e 1c61 4abe 65ef 8bbf
00000060: 579b 273e b110 e93d 25ec 85bd 9fe8 353d
00000070: 578a a8be f7c0 5a3d 61a5 a7bd 372e 44bd
00000080: b465 52bf 1d82 e23c be68 b83d 8635 06c0
00000090: 90a5 9f3e 88e5 4f3d dd76 65be bcad 99bf
000000a0: 684f 0ebe b2d6 e33d acaa 61bc e9a7 4c3f
000000b0: 5532 313e 7fb1 1c3c 3468 c13d a822 cb3e
000000c0: f719 45bd c6b0 b73d 4afe d4bd eb62 4b3c
000000d0: 006e 78bf 2537 a83c 8f97 5d3c 3312 b23d
000000e0: 41c6 183e 867e debd 3799 bf3d 3f91 563e
000000f0: 253e 54be 9735 43bd 6b20 9d3f 2ae7 e73e
00000100: ec1d ca3d a43b 393f 638e d3be c3be c7be
00000110: 454a 1abf 2576 82bd 9bf9 8f3e 5873 f6bf
00000120: 3b4e 20be 5d4a 113e 45e4 b2be 02f8 bd3d
00000130: fbfc 243e 568e 413e 82a6 313f d586 4a3e
00000140: 43d2 0a3f 6c2c 91bd 1e7a 0e3e 94b9 983f
00000150: 6eee c3be b291 123e 38ae 05bf 096b b13e
00000160: 5bb3 0c3f 384b 9b3e 6d7d 283d 2cd9 19bf
00000170: 63bf aebc 5958 6d3d 601f c2be 4381 ac3f
00000180: 8ead 03be c483 18be 48f8 6fbd b413 a63e
00000190: 90ef df3e 736a 0f3f 36d6 dbbe 885b 6f3d
000001a0: 1e19 3a3f f0ab 0bbe e6dc 943e 76af 8c3f
000001b0: 1c2d 7b3e 92ea ff3c d829 f7bc 5836 82be
000001c0: 1e20 a9bd ad3a aabe a4e3 f03d 03a5 023f
000001d0: f226 d5be 9531 0fbf c0e5 d1bd 678c 013f
000001e0: 4fad bbbe ef5c 713e a53f aabe 82c6 50be
000001f0: c7da 23be 30d2 b6bd e11c 073e 08df a2be
00000200: 8213 43be 2c0b 913e 4d96 72bf 8355 66be
00000210: bcda d8bd 7bab 99bc 7e30 2abf 8564 eabd
00000220: 838a 0cbe 9ec8 0ebd 98eb 633e c4fb 703e
00000230: a0f5 79bd 494f 703f 1be8 8fbe 353b 813f

onnx::MatMul_36 f4 [12, 12]
-0.10058822 -0.26221275 0.07620805 -0.21805613 -0.16758797 0.053902283 -0.2746473 -0.26977777
0.046509426 -0.1153007 0.13640879 0.11484731 0.21655673 -0.002190325 0.30149877 0.23343943
-0.37628907 0.28625807 0.3257427 0.6423467 -0.018912561 0.30239004 -0.16708122 -0.11637533
0.13602991 -0.19594373 -0.2446999 0.01049331 0.24952215 -0.07588598 0.21275643 -0.09663023
-0.26224995 -0.124922745 -0.17374839 -0.15940064 0.05591026 -0.14362928 -0.0045339474 0.15735756
0.28583285 0.048704248 0.08370904 0.33892515 0.045083564 0.5028156 -0.11544281 0.5841092
-0.1850884 -0.047452956 0.04152288 0.02038653 -0.0008470356 -0.14548306 -0.24569215 -0.23488183
-0.23310958 0.015661968 -0.059608746 0.1062413 0.21568988 -0.4352598 -0.06097839 -0.21709827
-0.019100461 0.11677724 -0.09084498 0.021514883 0.08755217 0.24062274 0.177594 0.22710799
-0.24014777 0.058021285 0.2689499 -0.025337355 0.19972761 -0.2571618 -0.14940594 -0.07893062
0.24564087 -0.25015914 0.07374743 -0.23082808 0.40964398 0.30584505 -0.15682235 0.058481216
0.6146459 0.046056014 -0.006170061 0.17913146 0.23271829 0.5125513 -0.13149916 0.3111248
0.15587416 0.21246494 -0.11010637 0.09585003 0.228317 0.045359008 -0.0062222737 -0.11548133
0.19813375 -0.0023020413 0.09326714 0.08129415 0.2569279 0.017790096 -0.239244 0.05810754
-0.19456536 -0.2593875 -0.09289354 0.16110143 -0.40062305 -0.16065545 -0.07934994 -0.3278268
0.03918412 -0.07446979 0.19389056 -0.056606337 0.20353153 -0.14547604 0.09665934 0.21484259
0.07727708 0.28853685 -0.028970655 0.2730924 0.32404694 0.087178014 0.21487659 0.06538578
0.16853738 -0.032729313 0.21671762 0.31176308 -0.07387382 -0.049716566 0.27206746 0.17600416
00000000: 3201 cebd c040 86be f712 9c3d 1b4a 5fbe
00000010: 2e9c 2bbe a4c8 5c3d 929e 8cbe 5020 8abe
00000020: ab80 3e3d c622 ecbd bfae 0b3e 1135 eb3d
00000030: 0cc1 5d3e 8e8b 0fbb 0c5e 9a3e bf0a 6f3e
00000040: f6a8 c0be 6b90 923e bfc7 a63e d570 243f
00000050: 84ee 9abc ded2 9a3e 5717 2bbe 3056 eebd
00000060: 6d4b 0b3e 79a5 48be 9c92 7abe 22ec 2b3c
00000070: bc82 7f3e 1c6a 9bbd d2dc 593e 12e6 c5bd
00000080: a045 86be 7fd7 ffbd 19eb 31be ec39 23be
00000090: 2802 653d 8e13 13be 8291 94bb 5722 213e
000000a0: af58 923e 1b7e 473d a56f ab3d 9987 ad3e
000000b0: 8ba9 383d 86b8 003f 486d ecbd 2e88 153f
000000c0: d087 3dbe 085e 42bd e513 2a3d a701 a73c
000000d0: 990b 5eba 83f9 14be b996 7bbe dd84 70be
000000e0: 47b4 6ebe 874d 803c 4d28 74bd 0a95 d93d
000000f0: cfdd 5c3e 5fda debe 7ac4 79bd 024f 5ebe
00000100: 9278 9cbc e828 ef3d ef0c babd fb3f b03c
00000110: 8d4e b33d cf65 763e 34db 353e ff8e 683e
00000120: 4ce9 75be baa7 6d3d cdb3 893e 4990 cfbc
00000130: 6585 4c3e b6aa 83be dffd 18be 60a6 a1bd
00000140: 4889 7b3e dc14 80be e508 973d 325e 6cbe
00000150: dbbc d13e b997 9c3e 0a96 20be 008a 6f3d
00000160: 6f59 1d3f 3ba5 3c3d 392e cabb 3d6e 373e
00000170: b44d 6e3e 9036 033f b7a7 06be c04b 9f3e
00000180: 7a9d 1f3e 6990 593e 737f e1bd 054d c43d
00000190: efcb 693e 5eca 393d 37e4 cbbb 7a81 ecbd
000001a0: 93e3 4a3e d8dd 16bb d802 bf3d 8c7d a63d
000001b0: 0e8c 833e 89bc 913c 61fc 74be 2c02 6e3d
000001c0: 243c 47be 70ce 84be f83e bebd c6f7 243e
000001d0: 771e cdbe dd82 24be 3982 a2bd ead8 a7be
000001e0: 877f 203d 9e83 98bd 3f8b 463e 0cdc 67bd
000001f0: 926a 503e acf7 14be 55f5 c53d b2ff 5b3e
00000200: 7243 9e3d 1abb 933e de53 edbc c4d2 8b3e
00000210: 7be9 a53e 638a b23d 9c08 5c3e fbe8 853d
00000220: 1095 2c3e 2c0f 06bd 39eb 5d3e 699f 9f3e
00000230: 284b 97bd 99a3 4bbd 6d4c 8b3e 6f3a 343e

onnx::MatMul_37 f4 [12, 12]
-0.057871334 -0.21185426 -0.10858167 0.129733 -0.12150872 0.4226508 0.199483 0.290967
0.35221854 0.082297534 -0.14102505 -0.13142703 0.36586058 0.20565066 0.19981393 -0.09349125
0.1844844 0.0035426377 0.2844265 -0.05874631 0.2787005 0.0968132 -0.45050794 0.0034636785
-0.19234651 0.12162992 -0.08198026 0.17757007 -0.29303154 -0.19175288 -0.09585886 -0.39910272
0.14462173 -0.26360825 0.18484429 -0.09448046 0.3877753 0.2659338 -0.032033823 0.1410736
0.06075245 -0.03179615 0.17224762 0.01995437 0.00075819046 -0.05534797 0.19637008 0.10749255
0.36367318 0.17228492 0.23825556 -0.18484133 0.35852155 0.25400087 -0.013606879 0.6732666
-0.031585254 -0.043281358 0.26210436 -0.030309724 -0.18703422 0.3308971 0.28240973 -0.13272917
0.050060164 -0.029531261 -0.19434153 -0.052534275 -0.13208129 0.28124598 -0.016532686 -0.2546386
0.07567918 0.089823104 -0.24105881 -0.19726229 -0.28844637 0.13067786 0.1144541 -0.3455656
0.42065433 0.08548662 0.015257721 -0.12175223 0.2607565 0.3371902 -0.35799876 -0.17330828
-0.46013263 0.3025887 -0.39715835 0.12240206 -0.07214243 -0.038282033 -0.21877062 0.10597143
0.09338985 -0.2669609 0.40070167 0.1876391 0.015996292 -0.33575317 0.03863261 0.4167752
-0.25122 0.11854366 -0.0928884 -0.27326265 -0.36533138 -0.1420112 0.0032630924 -0.23240091
0.2585597 0.7526856 -1.0089543 -0.3105873 -0.8292859 -1.6638495 -0.050011076 0.13686937
-0.35570806 -0.27997392 0.15626872 -0.024876706 0.36132154 0.16123562 -0.030008988 0.1085732
-0.07655245 -0.07251493 0.3809242 0.07255007 0.08308688 -0.18577646 0.43436182 -0.11549438
-0.15610588 0.15607409 -0.04443384 0.44367427 0.29416302 0.13533849 0.55777586 -0.0498603
00000000: 7e0a 6dbd 53f0 58be 1160 debd bad8 043e
00000010: 90d9 f8bd b065 d83e 4645 4c3e a0f9 943e
00000020: fd55 b43e 9c8b a83d df68 10be cf94 06be
00000030: 1452 bb3e 1696 523e 069c 4c3e 5778 bfbd
00000040: 7be9 3c3e 992b 683b 5aa0 913e f99f 70bd
00000050: d5b1 8e3e 0046 c63d faa8 e6be e2fe 623b
00000060: 7cf6 44be 1c19 f93d 44e5 a7bd eed4 353e
00000070: 3b08 96be de5a 44be a651 c4bd 3157 ccbe
00000080: b817 143e a9f7 86be d247 3d3e f97e c1bd
00000090: 7c8a c63e 7a28 883e e635 03bd 9975 103e
000000a0: 90d7 783d ae3c 02bd ae61 303e 5977 a33c
000000b0: 4dc1 463a 8eb4 62bd 3d15 493e 0e25 dc3d
000000c0: 5f33 ba3e 756b 303e 44f9 733e 0c47 3dbe
000000d0: 2390 b73e 670c 823e 63ef 5ebc 335b 2c3f
000000e0: 8a5f 01bd cb47 31bd 8b32 863e 194c f8bc
000000f0: e685 3fbe 586b a93e 0298 903e 28ea 07be
00000100: e30b 4d3d 8beb f1bc 7701 47be 2e2e 57bd
00000110: 5140 07be 79ff 8f3e 8e6f 87bc fe5f 82be
00000120: b0fd 9a3d 2df5 b73d 1fd8 76be 20ff 49be
00000130: 3eaf 93be 6bd0 053e e966 ea3d f9ed b0be
00000140: 0160 d73e 9c13 af3d 85fb 793c 3c59 f9bd
00000150: e081 853e 32a4 ac3e 9d4b b7be ba77 31be
00000160: 8196 ebbe e8ec 9a3e 5758 cbbe eead fa3d
00000170: 69bf 93bd 9fcd 1cbd 6805 60be 8d07 d93d
00000180: 2d43 bf3d 19af 88be c528 cd3e 7724 403e
00000190: a80a 833c d7e7 abbe 3a3d 1e3d 8f63 d53e
000001a0: e89f 80be 05c7 f23d 463c bebd 15e9 8bbe
000001b0: b70c bbbe 626b 11be 9bd9 553b 81fa 6dbe
000001c0: f061 843e 01b0 403f 6a25 81bf 4c05 9fbe
000001d0: 154c 54bf 05f9 d4bf 6ad8 4cbd 7c27 0c3e
000001e0: 5e1f b6be be58 8fbe e804 203e 3cca cbbc
000001f0: 23ff b83e f31a 253e 69d5 f5bc a05b de3d
00000200: 88c7 9cbd b582 94bd 7f08 c33e 2295 943d
00000210: 7429 aa3d 2f3c 3ebe ac64 de3e 5188 ecbd
00000220: 38da 1fbe e3d1 1f3e 4200 36bd 4629 e33e
00000230: 899c 963e 2c96 0a3e 66ca 0e3f 503a 4cbd

onnx::MatMul_38 f4 [12, 12]
-0.22999755 -0.2710976 0.26097646 -0.0069284234 0.18835738 0.17841363 0.15859896 -0.18586065
-0.03037677 -0.18732972 0.63791263 0.08826191 -0.1396177 -0.041900318 0.39106208 0.2026847
0.19106096 0.12594129 0.07169648 -0.08697756 0.28143793 0.20304559 0.1093552 -0.12324722
-0.19959842 0.106629685 -0.33544388 -0.21889108 -0.18289591 -0.111904815 0.277475 0.2795128
-0.25550562 0.23085888 -0.3070285 0.16476136 0.15555008 -0.12292258 0.10049719 -0.049554784
0.08910692 -0.063243456 -0.06759447 -0.20081557 0.26368806 0.006614132 0.2289631 0.112483256
-0.5655654 -0.10919894 -0.45174316 0.2018485 -0.0027696479 -0.1234251 0.14119406 -0.20159179
0.013262792 -0.06639322 -0.3031945 0.017753163 -0.14515258 0.24522245 0.2243214 -0.08458484
-0.48544222 0.15382154 -0.4241692 -0.20550655 -0.31723267 0.18747932 -0.14706191 -0.041852143
-0.43180072 0.023521498 0.28044748 0.19364372 0.32028672 -0.15936545 0.39383447 -0.20854017
-0.14091581 -0.09643659 0.46500656 0.14469549 -0.18469366 0.22830948 -0.14744174 -0.14594372
-0.32713854 -0.24250728 0.08194809 -0.28334662 -0.39139634 0.08946708 0.083518095 0.23785685
0.16129194 -0.2750437 0.39072374 0.028264092 0.20361304 0.04498921 0.35416865 -0.022868171
-0.19830403 0.14619744 0.41047233 -0.2706035 0.27283037 -0.11068891 -0.48146743 -0.14445454
0.33677772 0.23426457 0.5946155 -0.0988246 0.28579664 -0.089220576 0.24670419 -0.23753385
0.22196612 -0.1725841 -0.37455624 0.16893949 -0.21745421 -0.068670556 0.046544686 0.11645697
-0.40122446 0.16320474 -0.3973133 0.052811228 -0.26415697 -0.02977877 -0.08722368 -0.0970012
-0.012542934 0.26703188 -0.18496971 -0.036415994 0.00554565 0.27294868 -0.004505318 0.24291474
00000000: 7a84 6bbe 4ecd 8abe b59e 853e d407 e3bb
00000010: c2e0 403e 10b2 363e c467 223e 4152 3ebe
00000020: b4d8 f8bc 5dd3 3fbe 3e4e 233f a9c2 b43d
00000030: f1f7 0ebe ab9f 2bbd 4a39 c83e 948c 4f3e
00000040: 7ca5 433e c1f6 003e 9bd5 923d 4a21 b2bd
00000050: a218 903e 2feb 4f3e 9ef5 df3d 0a69 fcbd
00000060: 8763 4cbe aa60 da3d 4dbf abbe fc24 60be
00000070: 1149 3bbe 5a2e e5bd 3411 8e3e 4d1c 8f3e
00000080: a2d1 82be 4566 6c3e d732 9dbe 34b7 283e
00000090: 8548 1f3e d5be fbbd 79d1 cd3d f5f9 4abd
000000a0: b07d b63d c985 81bd f86e 8abd 99a2 4dbe
000000b0: 1f02 873e 5cbb d83b 4e75 6a3e 9f5d e63d
000000c0: e5c8 10bf b2a3 dfbd e14a e7be 60b1 4e3e
000000d0: fb82 35bb 4dc6 fcbd 2d95 103e 146e 4ebe
000000e0: 2e4c 593c 2bf9 87bd 4f3c 9bbe 156f 913c
000000f0: e1a2 14be 981b 7b3e 82b4 653e d13a adbd
00000100: e28b f8be 6583 1d3e b52c d9be 4f70 52be
00000110: 526c a2be 94fa 3f3e 6697 16be 276d 2bbd
00000120: fc14 ddbe 28b0 c03c d096 8f3e 8a4a 463e
00000130: 9ffc a33e b230 23be aca4 c93e 8e8b 55be
00000140: 3c4c 10be 8c80 c5bd 5715 ee3e 0e2b 143e
00000150: 5620 3dbe f6c9 693e f8fa 16be 4572 15be
00000160: b47e a7be d453 78be 66d4 a73d cf12 91be
00000170: 1a65 c8be 843a b73d 890b ab3d bf90 733e
00000180: b729 253e 87d2 8cbe f10c c83e 198a e73c
00000190: f07f 503e 9b46 383d 9855 b53e 0856 bbbc
000001a0: 3610 4bbe c8b4 153e 6e29 d23e 8b8c 8abe
000001b0: 6cb0 8b3e deb0 e2bd e682 f6be e4eb 13be
000001c0: 216e ac3e 0de3 6f3e b938 183f 8d64 cabd
000001d0: f053 923e 47b9 b6bd 06a0 7c3e 133c 73be
000001e0: 164b 633e e3b9 30be d6c5 bfbe 79fe 2c3e
000001f0: 51ac 5ebe 26a3 8cbd a4a5 3e3d fe80 ee3d
00000200: 4b6d cdbe 251f 273e a66c cbbe 9650 583d
00000210: 953f 87be 9bf2 f3bc 54a2 b2bd 91a8 c6bd
00000220: e180 4dbc 67b8 883e b368 3dbe f028 15bd
00000230: 49b8 b53b eebf 8b3e 59a1 93bb a4be 783e
