experiment_sources/diabetes/misc/diabetes_flow_exp_2024-11-19 14:36:12.814869_3e4e2_00000_best_model.pt (torch, 7714 bytes, 10 tensors)

trainable_layers.0.L_raw f4 [9, 9]
00000000: 0000 803f 0000 0000 0000 0000 0000 0000
00000010: 0000 0000 0000 0000 0000 0000 0000 0000
00000020: 0000 0000 3dc5 07bd 0000 803f 0000 0000
00000030: 0000 0000 0000 0000 0000 0000 0000 0000
00000040: 0000 0000 0000 0000 b5bd 1ebe 90b8 b4be
00000050: 0000 803f 0000 0000 0000 0000 0000 0000
00000060: 0000 0000 0000 0000 0000 0000 efe4 e53e
00000070: b9bd 46bf 525d 1cbd 0000 803f 0000 0000
00000080: 0000 0000 0000 0000 0000 0000 0000 0000
00000090: 3656 833b b49c ba3e f483 dd3d 3cdb 12be
000000a0: 0000 803f 0000 0000 0000 0000 0000 0000
000000b0: 0000 0000 2158 50bd 05a9 4c3e 1ecc 0e3e
000000c0: a64e ab3e 0529 18be 0000 803f 0000 0000
000000d0: 0000 0000 0000 0000 c316 47bd 0171 40bf
000000e0: a7be c2be cad6 d3be e540 893d 652d 763f
000000f0: 0000 803f 0000 0000 0000 0000 4dac 5d3f
00000100: e9e5 353e e595 4f3e 0bbf e43e cf17 273c
00000110: 7f01 b83e 0063 17be 0000 803f 0000 0000
00000120: d73b 993a d25a 313f 3424 4e3e 2554 cebe
00000130: 8214 123d b70b ca3e f398 52bd bf19 f03d
00000140: 0000 803f
1.0 0.0 0.0 0.0 0.0 0.0 0.0 0.0
0.0 -0.033147085 1.0 0.0 0.0 0.0 0.0 0.0
0.0 0.0 -0.15502055 -0.3529706 1.0 0.0 0.0 0.0
0.0 0.0 0.0 0.44901225 -0.77633244 -0.038174935 1.0 0.0
0.0 0.0 0.0 0.0 0.00400808 0.3644768 0.10816184 -0.14341444
1.0 0.0 0.0 0.0 0.0 -0.050865296 0.19986351 0.13945052
0.33458441 -0.14859398 1.0 0.0 0.0 0.0 -0.04860569 -0.7517243
-0.3803608 -0.4137481 0.06701831 0.96163017 1.0 0.0 0.0 0.86591035
0.17763485 0.20272024 0.44677004 0.0101985475 0.3593864 -0.14783859 1.0 0.0
0.0011690807 0.69279206 0.20130998 -0.40298572 0.03566409 0.39462063 -0.051415395 0.11723661
1.0

trainable_layers.0.U_raw f4 [9, 9]
00000000: e946 7bbf 3c91 043f 28d1 603d 12d8 4d3e
00000010: 307d e8b8 b9a8 e8bd 15f7 e73c c3d4 a93d
00000020: 1231 853e 0000 0000 a63a 7bbf 6e12 923e
00000030: fd6b 35be 2793 f83c 353e edbd a5f3 c63e
00000040: b9be 46be 9e21 823e 0000 0000 0000 0000
00000050: 0c61 7bbf b211 843d 89fe 6a3d a535 eebd
00000060: 09ab 713e b31b 073e b9d5 863e 0000 0000
00000070: 0000 0000 0000 0000 be55 7bbf 34bc d4bb
00000080: 15d2 f6be f887 a23e 68ab 9bbe 267b e03c
00000090: 0000 0000 0000 0000 0000 0000 0000 0000
000000a0: b058 7bbf ef43 433e b696 01be 10c8 24be
000000b0: 8d37 ecbd 0000 0000 0000 0000 0000 0000
000000c0: 0000 0000 0000 0000 9458 7b3f eb3d adbe
000000d0: 1fd4 a83b 32b6 0c3e 0000 0000 0000 0000
000000e0: 0000 0000 0000 0000 0000 0000 0000 0000
000000f0: 5358 7b3f e23f 8ebe d12e 3e3e 0000 0000
00000100: 0000 0000 0000 0000 0000 0000 0000 0000
00000110: 0000 0000 0000 0000 0d51 7b3f 9d03 f6be
00000120: 0000 0000 0000 0000 0000 0000 0000 0000
00000130: 0000 0000 0000 0000 0000 0000 0000 0000
00000140: a851 7bbf
-0.98155075 0.5178411 0.054886967 0.20101956 -0.0001108594 -0.11360306 0.02831606 0.08292534
0.26014 0.0 -0.98136365 0.28529686 -0.17716976 0.030343605 -0.11584131 0.3885776
-0.19408692 0.25416273 0.0 0.0 -0.98194957 0.064486876 0.05737165 -0.11631326
0.23600401 0.1319416 0.26334932 0.0 0.0 0.0 -0.9817771 -0.006492162
-0.48207155 0.3174436 -0.3040421 0.027402472 0.0 0.0 0.0 0.0
-0.981822 0.19068883 -0.12655148 -0.16091943 -0.11534033 0.0 0.0 0.0
0.0 0.0 0.98182034 -0.33836302 0.00515224 0.13741377 0.0 0.0
0.0 0.0 0.0 0.0 0.9818165 -0.27783114 0.18572547 0.0
0.0 0.0 0.0 0.0 0.0 0.0 0.9817055 -0.48049632
0.0 0.0 0.0 0.0 0.0 0.0 0.0 0.0
-0.9817147

trainable_layers.0.bias f4 [9]
00000000: 244a 473e 73a3 813f bd8b 2bbe 9157 1b3f
00000010: 4c5a 14be 2674 8abf ab54 663e 478b a33e
00000020: 3fbb 1ebe
0.19461876 1.0128006 -0.16752525 0.6068049 -0.1448757 -1.0816696 0.22493236 0.31942198
-0.15501116

trainable_layers.1.conditioner.layers.0.weight f4 [18, 9]
00000000: 48a5 8f3e 3058 c6bd fed6 83be beca 39be
00000010: 5362 05be 2c5c 813e 660a 833d 0382 1ebe
00000020: 3be6 4abe 93b2 7e3e eed5 1d3e a2b7 9d3e
00000030: 8459 15be 56e1 4e3b 0eef 00bd a622 a33d
00000040: 35ec 9e3e 00d7 94bd 0bff 913e f0a8 893e
00000050: 5e83 113e 4d93 643e 6ed8 40be bbb1 3f3d
00000060: 8655 b1bd 0f4e c83e 6eee 883e 8659 1a3e
00000070: 2cdf db3e 6bb3 5f3e 2862 febc a6e3 5d3e
00000080: 1f62 45bd 8b55 febd b3e4 a13e d01d 873e
00000090: 4b3b bd3d 3a74 bb3e 13ff 1c3e 0e02 3b3d
000000a0: ab9d 9c3b 794c 8bbe 80cb 95bc f527 533e
000000b0: db13 13be 9a26 90be 13ee 133f 33ef 86be
000000c0: dd45 af3e d843 1bbe a100 c0be 5bcc edbd
000000d0: f9dc 1d3d 20ba 2ebe 78bb 71be 8ce4 bebd
000000e0: ebe3 06be 0298 40be 4b78 84bd 92be b3be
000000f0: 1336 5abe 97ed f83e 16bd 373d 5bba 83be
00000100: 5a3a 8bbe 3631 55be 2383 403e c608 8f3d
00000110: 5b65 963e 2be8 35bc 9b64 7cbe 9b0d abbd
00000120: df8a 923e 4018 b93e 2bbb a83c 65ca 6bbf
00000130: ab2d 233e aabb 67be 4091 6abd 37f0 ccbc
00000140: a6ee 713e 42b0 8cbe b5ef abba f049 873e
00000150: bfda 80be c6b9 e63d 911c b13e b858 673e
00000160: dc97 f63e e6a0 33be 0092 fc3b cdc3 86be
00000170: f0a0 3b3e 0c38 7c3e 00c5 993d dd0a 293e
00000180: aece 4d3e ced4 f1be 4b9b a03d 423a 983e
00000190: dc31 0a3f 8bc6 0fbd bc2a 903d e83d 643e
000001a0: 29cc 10be 4ae6 a7be 01c0 333e ebe8 a3be
000001b0: d082 12be 28a4 b3be 507e 9abd 0fdd b13e
000001c0: 6b62 67be c894 8abe 002e 8b3d a5cf 063f
000001d0: a02b 413e a6e7 923e f3dc bb3e a075 633d
000001e0: 3615 aabe de03 1e3e 2ccf a5bd c6dd dfbd
000001f0: 6b0d b23e ab5c 33be 2040 65bd 0b6b fc3e
00000200: be83 533e dfd3 493e 9b25 c1bd ef60 cbbe
00000210: f0d2 a63d d65e a23d 7698 5c3e f672 62be
00000220: b9d3 aabd c0f4 ce3d aadf 043f d3e6 63be
00000230: 5faf a63d b3b3 223e 1cf2 74bc 1690 d23c
00000240: 9054 33be 288e 42be 1364 08be ab92 7eba
00000250: fba6 df3d e0c2 5f3d bea8 003e 2bec 66be
00000260: 4047 1abd 362d 98bd 0d65 043f a7c6 8c3e
00000270: 2e1b 99be 162e 9abc 23e7 cbbe d01a a53e
00000280: c18a f2bd 0e07 2f3e
0.28055787 -0.09684789 -0.25749964 -0.18143746 -0.13025789 0.25265634 0.06398468 -0.15479283
-0.19814388 0.24872808 0.15413639 0.30804163 -0.14584929 0.0031567416 -0.03147798 0.07965593
0.31039587 -0.072675705 0.28514895 0.26886702 0.14210269 0.22321816 -0.18832561 0.046800356
-0.086588904 0.39122054 0.26744407 0.15073213 0.42943704 0.21845786 -0.031052664 0.21668872
-0.04818928 -0.1241866 0.31619796 0.26389933 0.09239825 0.3661211 0.15331678 0.045656256
0.0047795377 -0.27206782 -0.018285513 0.20620711 -0.14363043 -0.2815445 0.5778515 -0.2635437
0.3423299 -0.15162599 -0.3750048 -0.11611243 0.038540814 -0.17063189 -0.2360667 -0.093209356
-0.13172881 -0.18807986 -0.064682566 -0.3510633 -0.2130969 0.48618767 0.04485806 -0.25728115
-0.27192956 -0.20819554 0.18800025 0.06984095 0.29374203 -0.011102716 -0.24647753 -0.083522044
0.28621575 0.36151314 0.020597061 -0.92105705 0.1593539 -0.22630182 -0.057267427 -0.025016887
0.23626193 -0.27478224 -0.0013117703 0.26423597 -0.2516689 0.11265902 0.34592107 0.22592437
0.48162735 -0.17541847 0.0077078342 -0.2632126 0.18323112 0.24630755 0.07508278 0.1650805
0.20098373 -0.4723267 0.0784212 0.29731947 0.5398233 -0.035101455 0.07039401 0.2228924
-0.14140381 -0.32792884 0.17553712 -0.3201364 -0.14307714 -0.3508618 -0.075436234 0.34738967
-0.22596137 -0.27066636 0.06795883 0.5266059 0.18864298 0.2869236 0.36692008 0.055532098
-0.33219308 0.15431163 -0.080961555 -0.10930972 0.34775862 -0.17515819 -0.055969357 0.49300417
0.20655724 0.19709729 -0.09431001 -0.39722392 0.08145702 0.07928245 0.21542534 -0.22114167
-0.08341164 0.10105276 0.51903784 -0.22256021 0.08138918 0.15888862 -0.0149503015 0.025703471
-0.17512727 -0.18999541 -0.13319425 -0.0009711186 0.10920521 0.054629207 0.1256437 -0.22551028
-0.037665606 -0.07430498 0.5171669 0.2749531 -0.2990355 -0.018820804 -0.3982478 0.3224702
-0.118428715 0.17092535

trainable_layers.1.conditioner.layers.0.bias f4 [18]
00000000: eeae 74be 7b21 943e 519d 063e 9279 7d3e
00000010: 8c1e b63d b7a7 843e a304 92bd a296 85be
00000020: 43ae 5fbe 7cd7 c43d 4ab0 ca3e 7571 9a3d
00000030: 5898 883e 79a1 953e 5c14 afbe da6c 2b3d
00000040: 50f5 92be 1ee2 b2be
-0.23894855 0.28931794 0.13145949 0.24753407 0.08892545 0.25909206 -0.07129791 -0.26091486
-0.2184382 0.09611413 0.39587623 0.075411715 0.2667873 0.29224756 -0.3419522 0.041851856
-0.28702784 -0.3493814

trainable_layers.1.conditioner.layers.1.weight f4 [18, 18]
00000000: 38bd 2fbe 9a46 f7bd 8e57 57bd a9ae 803e
00000010: 951e 72bd 991b c83e 5abb a5bd b67d 163e
00000020: 04a4 d2bd 4fad f73e 64c5 75be b853 2a3e
00000030: 87f5 43be 6108 fa3d 1e39 003f 9f13 eebd
00000040: f9ab 54be 7c21 3a3f 1089 70be 20d9 ebbd
00000050: 2a88 8e3e 9666 753e 05fe 1dbc 3f3c c63d
00000060: 0280 d1bc b4ce 01be 2c70 dbbe abce fe3e
00000070: 2dc0 80be e8bd 62bc abb1 7abd 5f55 243e
00000080: 2686 39be 4fd8 fe3d 81a9 bdbd 1123 eebe
00000090: 498f ab3d 15f9 b5bd 7b72 87bd f72b 6c3e
000000a0: ab6d 523e 4cc9 323e e3a5 8c3d 03ac 7fbd
000000b0: dc45 3dbf 9266 563f 52c8 8ebe a567 2c3e
000000c0: 62c9 d33b 6e89 603e 1c91 233e d2ee b4be
000000d0: 0b55 f3bb e442 bb3d 999b ccbd 222d 45be
000000e0: 00a9 fb3d ea1f 70be 4a5e 70be d0a8 56be
000000f0: 08c8 043e 3c90 aebd 0eaf 103e c7f5 2abe
00000100: 0e3d 633d e48d c2bd 36d6 473e 9d8c a83d
00000110: 6ee0 acbd a61c 523e 8600 383e 429f ea3d
00000120: 93b8 303c 9cb7 593e 11ff e63d 8d55 4e3d
00000130: 1d50 663e 61f5 01bc 230f cd3d 75bd 6e3e
00000140: 8191 16bf a37e d5be 3ace a63e 5464 bf3d
00000150: 68f4 7c3e 0558 9c3e e0a2 d23d b893 c4bc
00000160: 8c71 c2bd 1d8d 8a3e a770 5b3e ee01 943e
00000170: 8fab 98bd 6972 0f3e cb1c 043b 3ed3 69be
00000180: 52cf 47bf fd2e 253e 0bd2 32bd 8daa 0d3f
00000190: a8c9 673e 9e4c 03bd a196 36bf 649e 9d3e
000001a0: aa74 88be a66f 6bbf 4e5a 693e 94e9 aebe
000001b0: a97b d2bb 1c8f 62bd 3d0a cd3d 5ee7 24be
000001c0: 4535 933a 3c40 833d fcf5 713e 2be2 a6bd
000001d0: 603b c0bd 5de5 cebc 96d0 4b3e 85a6 f5bd
000001e0: a7b6 16be f1ca a3bd 4777 1a3e f35b 9d3d
000001f0: 5f82 b43d 5e54 0e3e 5cd0 343d 777a 06be
00000200: 4b0a d6bc 1b76 11be a993 4ebe fdda 38be
00000210: b12f 5b3e 3e6d 4dbe 2989 02bd 23bb 033e
00000220: 05f1 4abb c86f 6cbe 21f1 a9bd efad 473e
00000230: 53c8 5a3e be4b f73b 1293 6d3e f5c2 cabd
00000240: eeb4 5ebe e4c9 6bbe 5e49 1ebe bd14 18bd
00000250: 34df e9ba cd40 adbd f657 6fbe 2a5f fabc
00000260: 2e2a a2bd 399b c1bd b1f1 f0bc 9518 973d
00000270: b46c 49bc d2cf 1fbe bca4 66be 6431 453e
00000280: 0171 04be 8b7c 6b3e c251 35be fbd0 553e
00000290: fd40 9b3e 9966 87bd e608 ac3e d251 993e
000002a0: 46d8 923e 3e23 11be ded8 39bf be9d 83bf
000002b0: 8a29 66be 52fe 963e cfca 0e3e 5f62 00bd
000002c0: a8df 1f3d df52 debe aad7 5a3e df09 853e
000002d0: 4cb7 103d fca0 28bc dac2 283e 782e 973d
000002e0: a0f1 f93d f0cf 0cbe 576e 603e a5b3 2bbd
000002f0: f9bd a2be 37c2 f9bd 9d02 5a3e 0417 a23d
00000300: 6be1 5fbc 87ac 9a3e 1d6d 3c3e 5f94 8fbe
00000310: e46a 6dbe 5ac2 d8bc 2465 16bc b3a7 1ebe
00000320: 4368 403d 989c 363d 6858 6a3e 65f5 873e
00000330: 0dde a73e f6c2 8dbd 4f96 923f d92b bb3e
00000340: 1fa0 053b 4a04 1b3e 963f 0bbe 12c4 e93d
00000350: b612 aebd f78b 753e 9e72 883d ef49 03bd
00000360: be2e 033d 9e66 2d3e 1c61 2a3e fbb5 67be
00000370: 610b 70be e36c 2ebe c497 cbbd d7e0 cebd
00000380: 438d 853c e333 6dbe 2477 003e 4c22 d23d
00000390: 30f6 973c aca9 3abe 3183 623e 02f5 a5bd
000003a0: e35a 5bbc 8429 4fbe 5992 073e c31c 593e
000003b0: ba46 3e3d ccec 833e 166d 063e b0fd 553e
000003c0: dd03 a63e 956e 2ebe 7b08 103f c8e4 a2be
000003d0: 3f58 4ebe e21c 963d d366 803e 916f 9c3e
000003e0: 0511 253e 4779 56be 923a 5e3e 0d27 43bd
000003f0: edd6 2cbe 05b3 4bbe 95fd f8bd 8912 133e
-0.17162025 -0.12074013 -0.052573733 0.25133255 -0.059111197 0.39083555 -0.08092375 0.14696392
-0.1028519 0.4837441 -0.2400108 0.16633499 -0.1913663 0.122086294 0.50087154 -0.11624836
-0.20768727 0.72707343 -0.23489785 -0.11516023 0.2783826 0.23964915 -0.0096430825 0.0967946
-0.025573734 -0.12676507 -0.42859018 0.4976705 -0.25146618 -0.0138392225 -0.061204594 0.16048191
-0.1811758 0.12443601 -0.09260846 -0.4651113 0.08376939 -0.08885399 -0.06613632 0.23063646
0.20549648 0.17459601 0.06867578 -0.062419903 -0.7393472 0.8375026 -0.27887207 0.16836412
0.0064632157 0.21927425 0.15973324 -0.35338455 -0.0074259094 0.09143618 -0.099906154 -0.19255498
0.122880936 -0.23449674 -0.23473468 -0.20962834 0.12966931 -0.08523604 0.14129278 -0.16695319
0.05547815 -0.0949972 0.19515309 0.08229945 -0.08441244 0.20518741 0.1796895 0.11456157
0.010786193 0.21261448 0.11279119 0.050374556 0.22491498 -0.007932038 0.10012653 0.2331446
-0.5881577 -0.4169818 0.32579213 0.09345308 0.24702609 0.30535904 0.10284972 -0.023996219
-0.094943136 0.27060786 0.21429692 0.28907722 -0.07454597 0.14008488 0.0020158764 -0.22834489
-0.7805072 0.16131206 -0.043657344 0.55338365 0.2263552 -0.03205549 -0.7132359 0.30784905
-0.26651508 -0.91967237 0.22788355 -0.3416258 -0.006423433 -0.05531226 0.100117184 -0.16103885
0.0011231086 0.06408736 0.23628992 -0.08148607 -0.09386325 -0.025255853 0.19903788 -0.11994652
-0.14718114 -0.079976924 0.15084563 0.076835535 0.08813929 0.13899371 0.04414402 -0.13132654
-0.026127955 -0.1420521 -0.20173515 -0.18052287 0.21404912 -0.20061204 -0.031869087 0.12864356
-0.0030966413 -0.23089516 -0.08297945 0.19499944 0.2136548 0.007546871 0.23200634 -0.09900466
-0.21748707 -0.23026234 -0.15457675 -0.037129153 -0.0017843009 -0.084596254 -0.23373398 -0.030562956
-0.079182014 -0.094534345 -0.029412122 0.073777355 -0.012293983 -0.15606621 -0.22523779 0.19257122
-0.12933733 0.22996728 -0.1770697 0.20880501 0.3032302 -0.06611366 0.3360054 0.29945236
0.2868063 -0.141736 -0.7259654 -1.0282514 -0.22476783 0.29490906 0.13944553 -0.031343814
0.039031655 -0.434226 0.21371332 0.25984094 0.035331056 -0.010292288 0.1648058 0.0738191
0.122042894 -0.13751197 0.21917091 -0.04191937 -0.31785563 -0.12195247 0.2129006 0.07914546
-0.013664584 0.30209753 0.18400998 -0.28042886 -0.23185307 -0.026459862 -0.009179387 -0.1549366
0.04697443 0.044582933 0.22885287 0.2655441 0.327866 -0.069219515 1.145212 0.3655689
0.002038963 0.15138355 -0.13598475 0.114143506 -0.084996626 0.23979174 0.066624865 -0.03205293
0.032027 0.16933677 0.16638607 -0.22628014 -0.2344184 -0.17033724 -0.09941056 -0.101014785
0.01630271 -0.23164324 0.12545449 0.10260448 0.018550009 -0.18228787 0.22120358 -0.08103372
-0.013388368 -0.2023068 0.13239421 0.21202378 0.04645417 0.257666 0.1312755 0.20897555
0.32424822 -0.17034371 0.5626294 -0.3181517 -0.2015085 0.07329728 0.2507845 0.30553868
0.16119774 -0.20944701 0.2170203 -0.047644664 -0.16878863 -0.1989251 -0.12157742 0.1436254

trainable_layers.1.conditioner.layers.1.bias f4 [18]
00000000: efeb 2d3d e5de b13e 070b 6cbe 59a5 60bc
00000010: 3923 8cbd 6bb3 d03e b867 16be 3c60 903d
00000020: 68d5 16be 69c3 19be 4fae 833d 3b89 933e
00000030: c4f3 b7bd 6645 2f3e e9a0 493b d860 d83d
00000040: eecd 0f3f f8b8 b8be
0.042461332 0.34740368 -0.23051082 -0.013711297 -0.06842656 0.40761885 -0.14688003 0.07049605
-0.14729846 -0.1501595 0.06429731 0.28815636 -0.089820415 0.17116317 0.0030766076 0.105653465
0.561736 -0.3607862

trainable_layers.1.conditioner.layers.2.weight f4 [9, 18]
00000000: a439 67be 5d2b 3d3d e325 02be 27e9 1bbe
00000010: 195c 333b 5aa7 cc3e 9a44 ddbd 3ef0 ed3c
00000020: e454 a43d 1853 533e d6a8 cdbc eeb2 d2bd
00000030: f893 463e 637a 4abc 5496 71bd 75f8 50be
00000040: 80e1 fa3e 4426 3ebe f79d 40be bccc 25be
00000050: 0b8f 27bd 70f5 1bbe eb45 333e 6cc5 3c3e
00000060: f766 35be d722 2b3e d732 05be 730b 6bbe
00000070: 16e5 123e 4240 8bbd 8517 db3d e95d bab9
00000080: dda7 04bd 37dc 13be b042 5d3e b0b1 103e
00000090: 3e9e 11be ceaa 5b3d aa20 77bd 5639 603e
000000a0: 9cc8 87be e5e0 e63f c2b4 a8bd 8e7b 1e3e
000000b0: 7e62 b43d c90e 46be c695 27be a383 d3bd
000000c0: fc4c c1bd 2d69 a1be cd19 113e 2296 34be
000000d0: 51cf 42be 4864 e23d cad6 b73c 4914 233e
000000e0: 67ad 15be 3536 9d3d e86e 393b 4f10 84bd
000000f0: 9863 c1bd b0c0 c43d 6634 2ebe 6194 223e
00000100: 911e bb3d 6805 e53d 1595 1a3e a805 343e
00000110: dff6 36be 9734 263d 5b00 473e bf2e 2cbe
00000120: 3fef 8e3e 22e2 b73a c907 813e aed0 1a3e
00000130: 881c a53e 7e1b 31bc 03d2 483e 4348 67bd
00000140: 8b37 653e d244 8b3e 580f 343e e189 b7be
00000150: 375c 3dbe 1cea 0ebe f279 193e 2b71 3f3e
00000160: e8a2 edbe 8054 4b3f 13a0 4ebe 099d 38be
00000170: 4451 043e 48d1 19be ddca a5bd 92a2 773d
00000180: 66b4 eb3d dd2d e7bd 7a91 67bb fe78 6abe
00000190: 3213 a0bd 8a6a 163e 3705 0e3e 52c8 8dbd
000001a0: 0e49 633e c7f4 7abc 74bd 073e 1f25 a63c
000001b0: 0357 d7be bee5 babd 3974 50be a82c 483e
000001c0: d5ad 033e 5536 ac3f 19b8 983d 11c5 0abe
000001d0: a6ff 6c3d 677e 9fbd 1511 1bbd 0bfe d1bd
000001e0: 26fd c5bd 4173 f0bd 4a32 14be 3509 1c3e
000001f0: 3113 ca3e 16b9 a2be 0524 a73d 9cd0 543e
00000200: ede5 833d 7ceb 56be 9a56 e33c bb97 26bc
00000210: e3ee 93bd 7c54 69be fe14 20be f6b7 39be
00000220: 077a fd3d 787d e73d fccf 383e 1f24 3f3e
00000230: 030c aa3d 3ce0 6a3c b634 3abe 358d 4d3e
00000240: c3e8 ba3e ba5e 0fbf 81e0 a1bd a8a0 5c3e
00000250: 0ed9 443d 9f1f e7bc 135f 3e3e 49d3 d5bd
00000260: b868 7fbd 3492 133e 3d56 46bd e021 033e
00000270: 6e18 e13d 8c47 48bd dab9 d03d d83c 63be
00000280: e63a 33bf 2be6 7c3d
-0.22580582 0.046183933 -0.12709765 -0.1522566 0.0027368127 0.3997143 -0.108041 0.02904522
0.08024004 0.20637167 -0.025104921 -0.102880344 0.19392383 -0.012358281 -0.058981255 -0.20407279
0.49000168 -0.18569285 -0.18810259 -0.16191381 -0.0409079 -0.15230346 0.1750714 0.18434685
-0.17715059 0.16712509 -0.13007675 -0.22953586 0.14345202 -0.067993656 0.10697845 -0.00035546653
-0.03238665 -0.14439474 0.2160747 0.14130282 -0.14220521 0.05362969 -0.060333885 0.21896872
-0.2652024 1.8037382 -0.08237602 0.1547682 0.088078484 -0.19341578 -0.16365728 -0.10327842
-0.09438512 -0.31525555 0.14169998 -0.17635396 -0.19024397 0.110542834 0.022441287 0.15925707
-0.14616929 0.07676355 0.0028294865 -0.06448423 -0.09442824 0.09607065 -0.17012176 0.15876915
0.091366895 0.11182672 0.15095933 0.17580283 -0.17867611 0.040577497 0.1943373 -0.16814707
0.27916905 0.0014029185 0.25201252 0.15118667 0.3224833 -0.010809777 0.19611363 -0.0564654
0.22384469 0.27200943 0.17583978 -0.3584738 -0.18492208 -0.13956493 0.14987925 0.18695514
-0.4641335 0.7942581 -0.20178251 -0.18028654 0.12921625 -0.1502124 -0.08095334 0.060457774
0.11509018 -0.112880446 -0.0035334514 -0.22897717 -0.07816161 0.14689079 0.13869177 -0.06922974
0.22195837 -0.0153171485 0.13255864 0.020281373 -0.42058572 -0.09125851 -0.20356835 0.19548285
0.1285928 1.3454081 0.07456989 -0.13551737 0.057860993 -0.07787781 -0.037858088 -0.10253533
-0.09667425 -0.11740733 -0.14472309 0.15237887 0.39467767 -0.31781834 0.08161167 0.20782703
0.06440339 -0.20988268 0.027751256 -0.010168011 -0.072232984 -0.22786134 -0.15633008 -0.18136582
0.123767905 0.11303228 0.1804809 0.18666123 0.08303072 0.014335688 -0.1818417 0.20073397
0.36505708 -0.56003916 -0.07904149 0.2154566 0.048058562 -0.02821332 0.18590955 -0.1044069
-0.062355727 0.14411241 -0.048422087 0.12805891 0.10990988 -0.048896357 0.10191698 -0.22191179
-0.70011747 0.061742943

trainable_layers.1.conditioner.layers.2.bias f4 [9]
00000000: ac79 683e 4a97 153e ea8f b1bd e869 d1bd
00000010: 463a 83bc 4ff1 69be 0106 75be 9467 27be
00000020: 177e 023d
0.22702664 0.14608493 -0.086700276 -0.10225278 -0.016018998 -0.22845958 -0.23928072 -0.16348106
0.03185853

trainable_layers.2.scale f4 [9]
00000000: a156 083f d5fd 053f 7fa2 b6be 57a2 bc3e
00000010: 2afe 583e 476b d3be 61ef 01be 638e 903e
00000020: e4f0 413f
0.53257185 0.5234044 -0.3567085 0.36842605 0.21190706 -0.41292784 -0.12688972 0.28233632
0.75758195
