experiment_sources/diabetes/misc/forward.onnx (onnx, 56036 bytes, 9 tensors)

trainable_layers.0.forth.bias f4 [9]
00000000: 244a 473e 73a3 813f bd8b 2bbe 9157 1b3f
00000010: 4c5a 14be 2674 8abf ab54 663e 478b a33e
00000020: 3fbb 1ebe
0.19461876 1.0128006 -0.16752525 0.6068049 -0.1448757 -1.0816696 0.22493236 0.31942198
-0.15501116

trainable_layers.1.conditioner.layers.0.bias f4 [18]
00000000: eeae 74be 7b21 943e 519d 063e 9279 7d3e
00000010: 8c1e b63d b7a7 843e a304 92bd a296 85be
00000020: 43ae 5fbe 7cd7 c43d 4ab0 ca3e 7571 9a3d
00000030: 5898 883e 79a1 953e 5c14 afbe da6c 2b3d
00000040: 50f5 92be 1ee2 b2be
-0.23894855 0.28931794 0.13145949 0.24753407 0.08892545 0.25909206 -0.07129791 -0.26091486
-0.2184382 0.09611413 0.39587623 0.075411715 0.2667873 0.29224756 -0.3419522 0.041851856
-0.28702784 -0.3493814

trainable_layers.1.conditioner.layers.1.bias f4 [18]
00000000: efeb 2d3d e5de b13e 070b 6cbe 59a5 60bc
00000010: 3923 8cbd 6bb3 d03e b867 16be 3c60 903d
00000020: 68d5 16be 69c3 19be 4fae 833d 3b89 933e
00000030: c4f3 b7bd 6645 2f3e e9a0 493b d860 d83d
00000040: eecd 0f3f f8b8 b8be
0.042461332 0.34740368 -0.23051082 -0.013711297 -0.06842656 0.40761885 -0.14688003 0.07049605
-0.14729846 -0.1501595 0.06429731 0.28815636 -0.089820415 0.17116317 0.0030766076 0.105653465
0.561736 -0.3607862

trainable_layers.1.conditioner.layers.2.bias f4 [9]
00000000: ac79 683e 4a97 153e ea8f b1bd e869 d1bd
00000010: 463a 83bc 4ff1 69be 0106 75be 9467 27be
00000020: 177e 023d
0.22702664 0.14608493 -0.086700276 -0.10225278 -0.016018998 -0.22845958 -0.23928072 -0.16348106
0.03185853

trainable_layers.2.scale f4 [9]
00000000: a156 083f d5fd 053f 7fa2 b6be 57a2 bc3e
00000010: 2afe 583e 476b d3be 61ef 01be 638e 903e
00000020: e4f0 413f
0.53257185 0.5234044 -0.3567085 0.36842605 0.21190706 -0.41292784 -0.12688972 0.28233632
0.75758195

onnx::MatMul_35 f4 [9, 9]
00000000: 0af2 83bf e0b1 29be e5a3 85be c347 063f
00000010: ffcf 743e f4e9 8cbc 606a d3be 01a9 36bf
00000020: f102 4c3e cf43 b2bd 1a09 61be 8154 8a3d
00000030: 3762 60be 78f3 973d 1630 bc3c 2794 e03f
00000040: e0b9 b0bd cfb6 e23d 8036 95ba 1c1c ffbc
00000050: 1100 5cbf cd08 183e bc6b 033d b69b f83b
00000060: 8e80 0c3f 4f80 19bd 1278 a33d 2a99 27be
00000070: 128a 9a3e 0316 eabd 39e4 26bf b801 9ebd
00000080: e850 093b 1f94 2e3f c9fb 06bf 2185 18bf
00000090: 68e5 9bbd e25d eebd dc32 dfbd 7572 a6bd
000000a0: c4c4 7abf f5ee 5a3d 71d4 7bbe 3ae2 4abd
000000b0: 3919 c43d 57bf a7be 407a acbe 74c3 99be
000000c0: 61d5 0abf ce6c 873e 1330 123f 206b 92bf
000000d0: 563c a3be bced c83e c92a 6a3e aac9 c33e
000000e0: c49c 643e 33b4 f53d 29b7 a9bd 17ad bd3e
000000f0: e60c 883f a3ce 083e 9d34 0ebd 90ed b73d
00000100: a318 c03c e434 523e 2177 8cbe 1d7d 59be
00000110: ec5e 993d 837c 903e f2dd 893f 9792 f43d
00000120: 1a06 f3be 0d23 87be 35e0 a8be 4c6b 7a3d
00000130: 9acf 673e 94e0 263e 8060 533d 2c44 ffbe
00000140: 5562 82bf
-1.030824 -0.1657176 -0.26101604 0.5245325 0.23907469 -0.017201401 -0.41292095 -0.7135163
0.19922997 -0.0870434 -0.21976128 0.06754399 -0.21912466 0.07419485 0.022972148 1.7545213
-0.08629203 0.11070024 -0.001138404 -0.031141333 -0.859376 0.14847107 0.032085165 0.0075869216
0.5488366 -0.03747588 0.07981886 -0.16367021 0.30183464 -0.1142998 -0.6519199 -0.077151716
0.0020952765 0.68194765 -0.52727944 -0.5957814 -0.07612115 -0.116390005 -0.108983725 -0.081273
-0.9795649 0.053450543 -0.24592759 -0.049532153 0.09575123 -0.32763168 -0.3368702 -0.3003193
-0.5423184 0.264502 0.57104605 -1.1438942 -0.3188197 0.39243877 0.22867884 0.38239795
0.22325426 0.11997261 -0.08286888 0.3704612 1.0628936 0.13360076 -0.034718145 0.08980858
0.023449248 0.20527989 -0.27434638 -0.21239133 0.07488808 0.28219995 1.0770857 0.11942022
-0.47465593 -0.2639393 -0.32983556 0.061137483 0.22637787 0.16296607 0.0516057 -0.498567
-1.0186259

onnx::MatMul_36 f4 [9, 18]
00000000: 48a5 8f3e 93b2 7e3e 0bff 913e 8659 1a3e
00000010: 4b3b bd3d 9a26 90be 78bb 71be 5bba 83be
00000020: df8a 923e 42b0 8cbe 0092 fc3b 423a 983e
00000030: d082 12be a6e7 923e 2040 65bd f672 62be
00000040: 9054 33be 362d 98bd 3058 c6bd eed5 1d3e
00000050: f0a8 893e 2cdf db3e 3a74 bb3e 13ee 133f
00000060: 8ce4 bebd 5a3a 8bbe 4018 b93e b5ef abba
00000070: cdc3 86be dc31 0a3f 28a4 b3be f3dc bb3e
00000080: 0b6b fc3e b9d3 aabd 288e 42be 0d65 043f
00000090: fed6 83be a2b7 9d3e 5e83 113e 6bb3 5f3e
000000a0: 13ff 1c3e 33ef 86be ebe3 06be 3631 55be
000000b0: 2bbb a83c f049 873e f0a0 3b3e 8bc6 0fbd
000000c0: 507e 9abd a075 633d be83 533e c0f4 ce3d
000000d0: 1364 08be a7c6 8c3e beca 39be 8459 15be
000000e0: 4d93 643e 2862 febc 0e02 3b3d dd45 af3e
000000f0: 0298 40be 2383 403e 65ca 6bbf bfda 80be
00000100: 0c38 7c3e bc2a 903d 0fdd b13e 3615 aabe
00000110: dfd3 493e aadf 043f ab92 7eba 2e1b 99be
00000120: 5362 05be 56e1 4e3b 6ed8 40be a6e3 5d3e
00000130: ab9d 9c3b d843 1bbe 4b78 84bd c608 8f3d
00000140: ab2d 233e c6b9 e63d 00c5 993d e83d 643e
00000150: 6b62 67be de03 1e3e 9b25 c1bd d3e6 63be
00000160: fba6 df3d 162e 9abc 2c5c 813e 0eef 00bd
00000170: bbb1 3f3d 1f62 45bd 794c 8bbe a100 c0be
00000180: 92be b3be 5b65 963e aabb 67be 911c b13e
00000190: dd0a 293e 29cc 10be c894 8abe 2ccf a5bd
000001a0: ef60 cbbe 5faf a63d e0c2 5f3d 23e7 cbbe
000001b0: 660a 833d a622 a33d 8655 b1bd 8b55 febd
000001c0: 80cb 95bc 5bcc edbd 1336 5abe 2be8 35bc
000001d0: 4091 6abd b858 673e aece 4d3e 4ae6 a7be
000001e0: 002e 8b3d c6dd dfbd f0d2 a63d b3b3 223e
000001f0: bea8 003e d01a a53e 0382 1ebe 35ec 9e3e
00000200: 0f4e c83e b3e4 a13e f527 533e f9dc 1d3d
00000210: 97ed f83e 9b64 7cbe 37f0 ccbc dc97 f63e
00000220: ced4 f1be 01c0 333e a5cf 063f 6b0d b23e
00000230: d65e a23d 1cf2 74bc 2bec 66be c18a f2bd
00000240: 3be6 4abe 00d7 94bd 6eee 883e d01d 873e
00000250: db13 13be 20ba 2ebe 16bd 373d 9b0d abbd
00000260: a6ee 713e e6a0 33be 4b9b a03d ebe8 a3be
00000270: a02b 413e ab5c 33be 7698 5c3e 1690 d23c
00000280: 4047 1abd 0e07 2f3e
0.28055787 0.24872808 0.28514895 0.15073213 0.09239825 -0.2815445 -0.2360667 -0.25728115
0.28621575 -0.27478224 0.0077078342 0.29731947 -0.14307714 0.2869236 -0.055969357 -0.22114167
-0.17512727 -0.07430498 -0.09684789 0.15413639 0.26886702 0.42943704 0.3661211 0.5778515
-0.093209356 -0.27192956 0.36151314 -0.0013117703 -0.2632126 0.5398233 -0.3508618 0.36692008
0.49300417 -0.08341164 -0.18999541 0.5171669 -0.25749964 0.30804163 0.14210269 0.21845786
0.15331678 -0.2635437 -0.13172881 -0.20819554 0.020597061 0.26423597 0.18323112 -0.035101455
-0.075436234 0.055532098 0.20655724 0.10105276 -0.13319425 0.2749531 -0.18143746 -0.14584929
0.22321816 -0.031052664 0.045656256 0.3423299 -0.18807986 0.18800025 -0.92105705 -0.2516689
0.24630755 0.07039401 0.34738967 -0.33219308 0.19709729 0.51903784 -0.0009711186 -0.2990355
-0.13025789 0.0031567416 -0.18832561 0.21668872 0.0047795377 -0.15162599 -0.064682566 0.06984095
0.1593539 0.11265902 0.07508278 0.2228924 -0.22596137 0.15431163 -0.09431001 -0.22256021
0.10920521 -0.018820804 0.25265634 -0.03147798 0.046800356 -0.04818928 -0.27206782 -0.3750048
-0.3510633 0.29374203 -0.22630182 0.34592107 0.1650805 -0.14140381 -0.27066636 -0.080961555
-0.39722392 0.08138918 0.054629207 -0.3982478 0.06398468 0.07965593 -0.086588904 -0.1241866
-0.018285513 -0.11611243 -0.2130969 -0.011102716 -0.057267427 0.22592437 0.20098373 -0.32792884
0.06795883 -0.10930972 0.08145702 0.15888862 0.1256437 0.3224702 -0.15479283 0.31039587
0.39122054 0.31619796 0.20620711 0.038540814 0.48618767 -0.24647753 -0.025016887 0.48162735
-0.4723267 0.17553712 0.5266059 0.34775862 0.07928245 -0.0149503015 -0.22551028 -0.118428715
-0.19814388 -0.072675705 0.26744407 0.26389933 -0.14363043 -0.17063189 0.04485806 -0.083522044
0.23626193 -0.17541847 0.0784212 -0.3201364 0.18864298 -0.17515819 0.21542534 0.025703471
-0.037665606 0.17092535

onnx::MatMul_37 f4 [18, 18]
00000000: 38bd 2fbe 1089 70be 498f ab3d 999b ccbd
00000010: 93b8 303c a770 5b3e a97b d2bb 5cd0 343d
00000020: eeb4 5ebe c251 35be 4cb7 103d 2465 16bc
00000030: be2e 033d 5992 073e edd6 2cbe 6c63 3f3e
00000040: 2c92 8f3c 25e6 103e 9a46 f7bd 20d9 ebbd
00000050: 15f9 b5bd 222d 45be 9cb7 593e ee01 943e
00000060: 1c8f 62bd 777a 06be e4c9 6bbe fbd0 553e
00000070: fca0 28bc b3a7 1ebe 9e66 2d3e c31c 593e
00000080: 05b3 4bbe 71fe 20be 29c9 143d 7aad 8bbd
00000090: 8e57 57bd 2a88 8e3e 7b72 87bd 00a9 fb3d
000000a0: 11ff e63d 8fab 98bd 3d0a cd3d 4b0a d6bc
000000b0: 5e49 1ebe fd40 9b3e dac2 283e 4368 403d
000000c0: 1c61 2a3e ba46 3e3d 95fd f8bd 8a35 53be
000000d0: 8cd4 9d3d fd09 4d3a a9ae 803e 9666 753e
000000e0: f72b 6c3e ea1f 70be 8d55 4e3d 6972 0f3e
000000f0: 5ee7 24be 1b76 11be bd14 18bd 9966 87bd
00000100: 782e 973d 989c 363d fbb5 67be ccec 833e
00000110: 8912 133e f1e7 66be 8fe0 2dbd c57f 5a3c
00000120: 951e 72bd 05fe 1dbc ab6d 523e 4a5e 70be
00000130: 1d50 663e cb1c 043b 4535 933a a993 4ebe
00000140: 34df e9ba e608 ac3e a0f1 f93d 6858 6a3e
00000150: 610b 70be 166d 063e 8b33 2dbd 396c c6bd
00000160: af4d 1ebe cbdc 5d3e 991b c83e 3f3c c63d
00000170: 4cc9 323e d0a8 56be 61f5 01bc 3ed3 69be
00000180: 3c40 833d fdda 38be cd40 adbd d251 993e
00000190: f0cf 0cbe 65f5 873e e36c 2ebe b0fd 553e
000001a0: 764f 15be f613 04bc 28dc 003e ae6e 4b3e
000001b0: 5abb a5bd 0280 d1bc e3a5 8c3d 08c8 043e
000001c0: 230f cd3d 52cf 47bf fcf5 713e b12f 5b3e
000001d0: f657 6fbe 46d8 923e 576e 603e 0dde a73e
000001e0: c497 cbbd dd03 a63e 9b5e 013e 39bd fa3d
000001f0: fead 76be a3ed 8ebe b67d 163e b4ce 01be
00000200: 03ac 7fbd 3c90 aebd 75bd 6e3e fd2e 253e
00000210: 2be2 a6bd 3e6d 4dbe 2a5f fabc 3e23 11be
00000220: a5b3 2bbd f6c2 8dbd d7e0 cebd 956e 2ebe
00000230: 26c4 65bd fe51 06be 6b9a 94bd 3bac c53d
00000240: 04a4 d2bd 2c70 dbbe dc45 3dbf 0eaf 103e
00000250: 8191 16bf 0bd2 32bd 603b c0bd 2989 02bd
00000260: 2e2a a2bd ded8 39bf f9bd a2be 4f96 923f
00000270: 438d 853c 7b08 103f 2f2e 46be 62e1 c7bd
00000280: dafb 203e 80f5 a4bf 4fad f73e abce fe3e
00000290: 9266 563f c7f5 2abe a37e d5be 8daa 0d3f
000002a0: 5de5 cebc 23bb 033e 399b c1bd be9d 83bf
000002b0: 37c2 f9bd d92b bb3e e333 6dbe c8e4 a2be
000002c0: 7b92 cc3d 0d10 b9bd 4e29 b6be 19c6 ab3e
000002d0: 64c5 75be 2dc0 80be 52c8 8ebe 0e3d 633d
000002e0: 3ace a63e a8c9 673e 96d0 4b3e 05f1 4abb
000002f0: b1f1 f0bc 8a29 66be 9d02 5a3e 1fa0 053b
00000300: 2477 003e 3f58 4ebe e21b 5abe 399f 303e
00000310: 8dc5 fa3c 4288 a7be b853 2a3e e8bd 62bc
00000320: a567 2c3e e48d c2bd 5464 bf3d 9e4c 03bd
00000330: 85a6 f5bd c86f 6cbe 9518 973d 52fe 963e
00000340: 0417 a23d 4a04 1b3e 4c22 d23d e21c 963d
00000350: b9fa dbbd 4ae4 acbc 9414 e7bd 9381 423e
00000360: 87f5 43be abb1 7abd 62c9 d33b 36d6 473e
00000370: 68f4 7c3e a196 36bf a7b6 16be 21f1 a9bd
00000380: b46c 49bc cfca 0e3e 6be1 5fbc 963f 0bbe
00000390: 30f6 973c d366 803e 5f6b 133e 12ae 49be
000003a0: 2447 c53e b25d 37be 6108 fa3d 5f55 243e
000003b0: 6e89 603e 9d8c a83d 0558 9c3e 649e 9d3e
000003c0: f1ca a3bd efad 473e d2cf 1fbe 5f62 00bd
000003d0: 87ac 9a3e 12c4 e93d aca9 3abe 916f 9c3e
000003e0: f3a0 4ebe 4dd7 853d 01bc a43d 4bab 88bd
000003f0: 1e39 003f 2686 39be 1c91 233e 6ee0 acbd
-0.17162025 -0.23489785 0.08376939 -0.099906154 0.010786193 0.21429692 -0.006423433 0.04414402
-0.21748707 -0.1770697 0.035331056 -0.009179387 0.032027 0.13239421 -0.16878863 0.1869027
0.017525755 0.14150293 -0.12074013 -0.11516023 -0.08885399 -0.19255498 0.21261448 0.28907722
-0.05531226 -0.13132654 -0.23026234 0.20880501 -0.010292288 -0.1549366 0.16933677 0.21202378
-0.1989251 -0.15722062 0.036324654 -0.068201974 -0.052573733 0.2783826 -0.06613632 0.122880936
0.11279119 -0.07454597 0.100117184 -0.026127955 -0.15457675 0.3032302 0.1648058 0.04697443
0.16638607 0.04645417 -0.12157742 -0.20625892 0.07706556 0.0007821618 0.25133255 0.23964915
0.23063646 -0.23449674 0.050374556 0.14008488 -0.16103885 -0.1420521 -0.037129153 -0.06611366
0.0738191 0.044582933 -0.22628014 0.257666 0.1436254 -0.22549416 -0.042450484 0.013336127
-0.059111197 -0.0096430825 0.20549648 -0.23473468 0.22491498 0.0020158764 0.0011231086 -0.20173515
-0.0017843009 0.3360054 0.122042894 0.22885287 -0.2344184 0.1312755 -0.042285483 -0.096886106
-0.15459321 0.21666257 0.39083555 0.0967946 0.17459601 -0.20962834 -0.007932038 -0.22834489
0.06408736 -0.18052287 -0.084596254 0.29945236 -0.13751197 0.2655441 -0.17033724 0.20897555
-0.14581093 -0.0080614 0.12583983 0.1986644 -0.08092375 -0.025573734 0.06867578 0.12966931
0.10012653 -0.7805072 0.23628992 0.21404912 -0.23373398 0.2868063 0.21917091 0.327866
-0.09941056 0.32424822 0.12633745 0.122431226 -0.2408981 -0.27915677 0.14696392 -0.12676507
-0.062419903 -0.08523604 0.2331446 0.16131206 -0.08148607 -0.20061204 -0.030562956 -0.141736
-0.04191937 -0.069219515 -0.101014785 -0.17034371 -0.056095265 -0.13117215 -0.072560154 0.09651991
-0.1028519 -0.42859018 -0.7393472 0.14129278 -0.5881577 -0.043657344 -0.09386325 -0.031869087
-0.079182014 -0.7259654 -0.31785563 1.145212 0.01630271 0.5626294 -0.19353555 -0.09759785
0.15721074 -1.2887421 0.4837441 0.4976705 0.8375026 -0.16695319 -0.4169818 0.55338365
-0.025255853 0.12864356 -0.094534345 -1.0282514 -0.12195247 0.3655689 -0.23164324 -0.3181517
0.099888764 -0.090362646 -0.35578388 0.33549574 -0.2400108 -0.25146618 -0.27887207 0.05547815
0.32579213 0.2263552 0.19903788 -0.0030966413 -0.029412122 -0.22476783 0.2129006 0.002038963
0.12545449 -0.2015085 -0.21299699 0.17248239 0.030611778 -0.32721144 0.16633499 -0.0138392225
0.16836412 -0.0949972 0.09345308 -0.03205549 -0.11994652 -0.23089516 0.073777355 0.29490906
0.07914546 0.15138355 0.10260448 0.07329728 -0.10741181 -0.02110495 -0.11283222 0.18994741
-0.1913663 -0.061204594 0.0064632157 0.19515309 0.24702609 -0.7132359 -0.14718114 -0.08297945
-0.012293983 0.13944553 -0.013664584 -0.13598475 0.018550009 0.2507845 0.14396428 -0.19695309
0.38530838 -0.17906836 0.122086294 0.16048191 0.21927425 0.08229945 0.30535904 0.30784905
-0.079976924 0.19499944 -0.15606621 -0.031343814 0.30209753 0.114143506 -0.18228787 0.30553868
-0.20178585 0.06535206 0.080436714 -0.066732965 0.50087154 -0.1811758 0.15973324 -0.08441244

onnx::MatMul_38 f4 [18, 9]
00000000: a439 67be f79d 40be 3e9e 11be cad6 b73c
00000010: 3fef 8e3e 13a0 4ebe 0357 d7be 0524 a73d
00000020: c3e8 ba3e 5d2b 3d3d bccc 25be ceaa 5b3d
00000030: 4914 233e 22e2 b73a 099d 38be bee5 babd
00000040: 9cd0 543e ba5e 0fbf e325 02be 0b8f 27bd
00000050: aa20 77bd 67ad 15be c907 813e 4451 043e
00000060: 3974 50be ede5 833d 81e0 a1bd 27e9 1bbe
00000070: 70f5 1bbe 5639 603e 3536 9d3d aed0 1a3e
00000080: 48d1 19be a82c 483e 7ceb 56be a8a0 5c3e
00000090: 195c 333b eb45 333e 9cc8 87be e86e 393b
000000a0: 881c a53e ddca a5bd d5ad 033e 9a56 e33c
000000b0: 0ed9 443d 5aa7 cc3e 6cc5 3c3e e5e0 e63f
000000c0: 4f10 84bd 7e1b 31bc 92a2 773d 5536 ac3f
000000d0: bb97 26bc 9f1f e7bc 9a44 ddbd f766 35be
000000e0: c2b4 a8bd 9863 c1bd 03d2 483e 66b4 eb3d
000000f0: 19b8 983d e3ee 93bd 135f 3e3e 3ef0 ed3c
00000100: d722 2b3e 8e7b 1e3e b0c0 c43d 4348 67bd
00000110: dd2d e7bd 11c5 0abe 7c54 69be 49d3 d5bd
00000120: e454 a43d d732 05be 7e62 b43d 6634 2ebe
00000130: 8b37 653e 7a91 67bb a6ff 6c3d fe14 20be
00000140: b868 7fbd 1853 533e 730b 6bbe c90e 46be
00000150: 6194 223e d244 8b3e fe78 6abe 677e 9fbd
00000160: f6b7 39be 3492 133e d6a8 cdbc 16e5 123e
00000170: c695 27be 911e bb3d 580f 343e 3213 a0bd
00000180: 1511 1bbd 077a fd3d 3d56 46bd eeb2 d2bd
00000190: 4240 8bbd a383 d3bd 6805 e53d e189 b7be
000001a0: 8a6a 163e 0bfe d1bd 787d e73d e021 033e
000001b0: f893 463e 8517 db3d fc4c c1bd 1595 1a3e
000001c0: 375c 3dbe 3705 0e3e 26fd c5bd fccf 383e
000001d0: 6e18 e13d 637a 4abc e95d bab9 2d69 a1be
000001e0: a805 343e 1cea 0ebe 52c8 8dbd 4173 f0bd
000001f0: 1f24 3f3e 8c47 48bd 5496 71bd dda7 04bd
00000200: cd19 113e dff6 36be f279 193e 0e49 633e
00000210: 4a32 14be 030c aa3d dab9 d03d 75f8 50be
00000220: 37dc 13be 2296 34be 9734 263d 2b71 3f3e
00000230: c7f4 7abc 3509 1c3e 3ce0 6a3c d83c 63be
00000240: 80e1 fa3e b042 5d3e 51cf 42be 5b00 473e
00000250: e8a2 edbe 74bd 073e 3113 ca3e b634 3abe
00000260: e63a 33bf 4426 3ebe b0b1 103e 4864 e23d
00000270: bf2e 2cbe 8054 4b3f 1f25 a63c 16b9 a2be
00000280: 358d 4d3e 2be6 7c3d
-0.22580582 -0.18810259 -0.14220521 0.022441287 0.27916905 -0.20178251 -0.42058572 0.08161167
0.36505708 0.046183933 -0.16191381 0.05362969 0.15925707 0.0014029185 -0.18028654 -0.09125851
0.20782703 -0.56003916 -0.12709765 -0.0409079 -0.060333885 -0.14616929 0.25201252 0.12921625
-0.20356835 0.06440339 -0.07904149 -0.1522566 -0.15230346 0.21896872 0.07676355 0.15118667
-0.1502124 0.19548285 -0.20988268 0.2154566 0.0027368127 0.1750714 -0.2652024 0.0028294865
0.3224833 -0.08095334 0.1285928 0.027751256 0.048058562 0.3997143 0.18434685 1.8037382
-0.06448423 -0.010809777 0.060457774 1.3454081 -0.010168011 -0.02821332 -0.108041 -0.17715059
-0.08237602 -0.09442824 0.19611363 0.11509018 0.07456989 -0.072232984 0.18590955 0.02904522
0.16712509 0.1547682 0.09607065 -0.0564654 -0.112880446 -0.13551737 -0.22786134 -0.1044069
0.08024004 -0.13007675 0.088078484 -0.17012176 0.22384469 -0.0035334514 0.057860993 -0.15633008
-0.062355727 0.20637167 -0.22953586 -0.19341578 0.15876915 0.27200943 -0.22897717 -0.07787781
-0.18136582 0.14411241 -0.025104921 0.14345202 -0.16365728 0.091366895 0.17583978 -0.07816161
-0.037858088 0.123767905 -0.048422087 -0.102880344 -0.067993656 -0.10327842 0.11182672 -0.3584738
0.14689079 -0.10253533 0.11303228 0.12805891 0.19392383 0.10697845 -0.09438512 0.15095933
-0.18492208 0.13869177 -0.09667425 0.1804809 0.10990988 -0.012358281 -0.00035546653 -0.31525555
0.17580283 -0.13956493 -0.06922974 -0.11740733 0.18666123 -0.048896357 -0.058981255 -0.03238665
0.14169998 -0.17867611 0.14987925 0.22195837 -0.14472309 0.08303072 0.10191698 -0.20407279
-0.14439474 -0.17635396 0.040577497 0.18695514 -0.0153171485 0.15237887 0.014335688 -0.22191179
0.49000168 0.2160747 -0.19024397 0.1943373 -0.4641335 0.13255864 0.39467767 -0.1818417
-0.70011747 -0.18569285 0.14130282 0.110542834 -0.16814707 0.7942581 0.020281373 -0.31781834
0.20073397 0.061742943
