experiment_sources/concrete/misc/backward.onnx (onnx, 85754 bytes, 13 tensors)

trainable_layers.0.back.bias f4 [9]
1.4077046 -2.20269 -2.6734502 -11.039183 -0.033368394 -4.9116273 -3.9017386 -0.34013397
-1.5028374
00000000: aa2f b43f dff8 0cc0 cf19 2bc0 7ea0 30c1
00000010: 4cad 08bd 0d2c 9dc0 16b6 79c0 0a26 aebe
00000020: fa5c c0bf

trainable_layers.1.conditioner.layers.0.bias f4 [18]
0.5352175 -0.081617355 -0.415427 -0.4886315 -0.04643412 0.47809118 0.17083982 -0.15999691
0.81984293 -0.4590401 0.71934396 0.31018883 -0.96835893 0.21112436 0.68950343 0.049554575
-0.47218123 0.6319045
00000000: 0404 093f 0027 a7bd d9b2 d4be e82d fabe
00000010: b431 3ebd 5ec8 f43e a2f0 2e3e 3bd6 23be
00000020: 3ae1 513f 4e07 ebbe ed26 383f 12d1 9e3e
00000030: 5fe6 77bf fc30 583e 4c83 303f bdf9 4a3d
00000040: bdc1 f1be 7ec4 213f

trainable_layers.1.conditioner.layers.1.bias f4 [9]
-0.2512525 0.045494515 0.0020996518 0.09498593 -0.0846792 0.20590593 0.07060214 0.06396512
0.25643674
00000000: 2ba4 80be 7558 3a3d 509a 093b fc87 c23d
00000010: 4a6c adbd 01d9 523e db97 903d 2500 833d
00000020: ad4b 833e

trainable_layers.2.back.bias f4 [9]
-0.23818058 0.093592405 0.14834765 0.39564553 -0.086296365 -0.47582757 -0.35764349 -0.2548014
-0.98162043
00000000: 9ce5 73be 60ad bf3d 72e8 173e 0d92 ca3e
00000010: 26bc b0bd ac9f f3be 0c1d b7be 5475 82be
00000020: 7a4b 7bbf

trainable_layers.3.conditioner.layers.0.bias f4 [18]
0.3761875 0.38519162 0.47572064 -0.3423598 -0.03417639 0.4652333 0.47668684 0.5410551
-0.010196429 0.3362999 0.15277669 -0.11410372 0.46718776 0.033748776 -0.13557805 -0.21171707
0.4245195 0.44788942
00000000: a69b c03e d637 c53e a891 f33e c949 afbe
00000010: 8bfc 0bbd 0f33 ee3e 4c10 f43e 9682 0a3f
00000020: ec0e 27bc 802f ac3e 7e71 1c3e 36af e9bd
00000030: 3c33 ef3e 283c 0a3d f9d4 0abe 5ccc 58be
00000040: 9f5a d93e c351 e53e

trainable_layers.3.conditioner.layers.1.bias f4 [9]
-0.13177274 0.33860505 -0.07871011 0.023499586 -0.08476082 -0.3158133 -0.11616107 0.013714392
0.04819509
00000000: 6fef 06be a45d ad3e c432 a1bd 3482 c03c
00000010: 1597 adbd 48b2 a1be dbe5 edbd 54b2 603c
00000020: 3768 453d

trainable_layers.4.scale f4 [9]
0.4230231 0.2300951 0.21888445 0.58284223 0.24626096 -0.2876475 -0.1515856 -0.35993627
-0.26974404
00000000: 7c96 d83e 0d9e 6b3e 3f23 603e 2635 153f
00000010: d52b 7c3e 8846 93be 4139 1bbe 9149 b8be
00000020: e41b 8abe

onnx::MatMul_55 f4 [9, 18]
0.12456069 -0.033652697 0.34660965 -0.047950994 -0.2691481 0.0073462906 0.05052781 0.02776327
0.39927942 0.35424843 -0.4189505 -0.17717092 0.32405895 0.31050825 -0.40789255 -0.15887931
-0.10508546 0.029793223 -0.25455472 -0.25388002 -0.29699406 0.15885167 0.23225495 0.14291982
-0.2976666 0.072390996 -0.00030628842 -0.032518666 -0.20387888 0.32570195 -0.19925854 -0.14805648
0.13828409 0.24161398 0.119703576 0.22179954 0.19689466 -0.10599494 0.21794556 -0.46636122
-0.3080635 0.39025664 -0.2124749 0.21614647 -0.40902498 0.18662106 0.036717724 -0.039518952
0.008050262 0.5052686 -0.023663944 0.22757377 0.008013849 0.029835463 -0.06593394 -0.27390525
0.08795162 0.21945918 0.30991077 -0.2843247 0.13838875 -0.07541462 -0.31653368 -0.15552764
0.31595135 -0.17634873 -0.21417873 0.32958257 0.0030025642 -0.19659957 -0.090750895 0.31765437
-0.37348807 -0.2509322 0.0916273 0.33072492 0.26366344 -0.23334102 0.20808192 -0.2648173
0.37985238 0.29875454 -0.102985464 -0.21027462 -0.30791956 0.23055677 -0.095558204 0.6629917
-0.0037864298 0.30936238 0.15545282 -0.26840755 0.31275523 -0.29271787 -0.08884414 -0.07831391
0.1789084 -0.17062704 -0.17477524 0.31633055 0.27184153 -0.26503024 -0.08886226 0.16704576
0.23261134 -0.13033804 0.067825794 -0.2728711 -0.3986699 0.99889034 -0.34021235 0.01665362
-0.34662426 -0.07931548 -0.39337024 -0.032188434 -0.06900102 0.12256426 0.2466971 0.015066266
-0.16235544 0.1686402 0.119762816 0.123513065 0.07139128 0.08807134 -0.32149142 -0.22443978
0.24986029 0.11284006 -0.09587439 -0.21617667 -0.1095924 -0.026751002 -0.08954167 0.23892085
0.29057917 -0.29053098 -0.16073224 -0.20736532 -0.33277807 -0.3321275 -0.019191425 0.30101407
0.10557416 0.29220635 0.24613199 -0.22538556 -0.07743788 -0.21292713 -0.13723932 -0.20747018
-0.48946798 -0.3526661 -0.22197084 0.04970658 -0.30684313 -0.012678397 -0.25876954 0.055302516
-0.5208267 0.2192835
00000000: ad19 ff3d 69d7 09bd d276 b13e 4368 44bd
00000010: c8cd 89be 27b9 f03b 40f6 4e3d cc6f e33c
00000020: 5a6e cc3e 0d60 b53e ae80 d6be 4b6c 35be
00000030: 0eeb a53e f0fa 9e3e 4bd7 d0be 42b1 22be
00000040: 0c37 d7bd eb10 f43c ff54 82be 90fc 81be
00000050: 9b0f 98be 03aa 223e 3ed4 6d3e 9359 123e
00000060: c267 98be bb41 943d 5695 a0b9 4b32 05bd
00000070: a0c5 50be 68c2 a63e 6e0a 4cbe 1e9c 17be
00000080: 589a 0d3e a869 773e 2627 f53d 6b1f 633e
00000090: c19e 493e e013 d9bd 1f2d 5f3e e6c6 eebe
000000a0: 80ba 9dbe b8cf c73e 0593 59be 8055 5d3e
000000b0: b96b d1be 9719 3f3e 5365 163d a0de 21bd
000000c0: 3fe5 033c 4859 013f e3da c1bc 1909 693e
000000d0: 854c 033c 8069 f43c 6008 87bd 4f3d 8cbe
000000e0: fb1f b43d e8b9 603e a0ac 9e3e 0293 91be
000000f0: c8b5 0d3e fb72 9abd b410 a2be a342 1fbe
00000100: 60c4 a13e c394 34be ab51 5bbe 0cbf a83e
00000110: abc6 443b 6651 49be 9bdb b9bd 98a3 a23e
00000120: d439 bfbe 2f7a 80be 18a7 bb3d c754 a93e
00000130: e5fe 863e f3f0 6ebe 6d13 553e 2296 87be
00000140: 037c c23e 5bf6 983e 0bea d2bd 3b52 57be
00000150: a2a7 9dbe 1317 6c3e 05b4 c3bd d3b9 293f
00000160: c025 78bb bf64 9e3e 062f 1f3e b76c 89be
00000170: 7421 a03e 1edf 95be ebf3 b5bd 0b63 a0bd
00000180: c333 373e dbb8 2ebe 48f8 32be 14f6 a13e
00000190: d02e 8b3e 0bb2 87be 6bfd b5bd 0b0e 2b3e
000001a0: ab31 6e3e 5677 05be 40e8 8a3d c3b5 8bbe
000001b0: 761e ccbe 47b7 7f3f 5030 aebe 2c6d 883c
000001c0: bc78 b1be 2870 a2bd d367 c9be 05d8 03bd
000001d0: 6850 8dbd f902 fb3d 2a9e 7c3e 80d8 763c
000001e0: 8140 26be 04b0 2c3e 3546 f53d 6bf4 fc3d
000001f0: 9735 923d bf5e b43d 869a a4be 8bd3 65be
00000200: 60db 7f3e b018 e73d cb59 c4bd 6b5d 5dbe
00000210: fb71 e0bd eb24 dbbc a061 b7bd aba7 743e
00000220: cbc6 943e 7ac0 94be fe96 24be 9357 54be
00000230: e361 aabe 9e0c aabe 5637 9dbc 841e 9a3e
00000240: 4437 d83d 129c 953e 060a 7c3e 79cb 66be
00000250: c097 9ebd 9209 5abe 7788 0cbe 1073 54be
00000260: 8c9b fabe a790 b4be 534c 63be 2099 4b3d
00000270: 8b1a 9dbe 0db9 4fbc 717d 84be e484 623d
00000280: e654 05bf db8b 603e

onnx::MatMul_56 f4 [18, 9]
-0.18269487 -0.1728609 0.0055927183 0.18449852 0.10165719 -0.043622844 -0.21658656 0.22779904
-0.025932029 -0.076587655 -1.0602204 0.083864056 0.20825893 0.18171714 0.53019214 -0.06489707
0.15279965 -0.10671658 -0.123278946 0.02170103 0.10994194 0.37647995 0.22824828 0.24190512
0.16379662 0.12093944 0.14367886 0.15012975 0.18997993 0.00035566321 -0.0059719468 0.07887971
-0.10667339 0.16235231 0.56095487 0.18627314 -0.09430894 -0.10070453 0.088605545 0.20650391
0.0009851404 0.44300696 0.06393458 0.0013462739 0.06292752 -0.10282328 0.11347449 0.11549731
0.2576647 0.001223523 -0.31844407 -0.13750163 0.053387392 0.17962243 -0.23211823 0.088005304
-0.10264756 0.29119235 -0.022205966 -0.047588203 -0.23386915 0.0007178009 -0.19155031 0.007455075
0.05830841 -0.22777219 0.18466476 -0.05587183 -0.23527789 -0.074361175 0.07080528 0.16063125
0.20639814 0.42766353 -0.09735849 -0.24280877 -0.16566901 -0.27334693 -0.08704901 0.004039306
0.02612492 -0.0013010732 0.5835933 0.17697676 0.07074651 -0.08186539 0.09075218 0.11224203
-0.044699695 0.036841374 -0.13124616 0.13242677 0.13663939 -0.18839927 0.10236199 1.0907558
-0.17472589 0.261391 -0.17608266 -0.1481559 0.043652136 -0.15673545 -0.15491134 0.13481271
-0.018891005 0.09858254 0.23436989 -0.048342492 0.10356369 0.19198255 0.04165952 0.09375743
0.09882812 -0.13575687 -0.055464886 0.31659493 0.21410733 -0.19218497 0.08143732 0.15685931
0.29620096 0.20654094 0.5614451 -0.060714953 -0.18269369 -0.101368085 0.08878939 1.0408155
-0.035057973 0.49203774 -0.14405386 0.16427363 -0.05106043 -0.09224783 0.1767963 -0.001979778
-0.95818406 -0.10318776 -0.1371004 -0.20430407 -0.054101195 0.02201431 0.16674241 -0.16246761
0.087378256 0.31124696 -0.11903439 0.167746 -0.06570385 -0.47609818 0.14616945 0.12911227
-0.123185515 0.01735402 0.09702541 -0.19505446 0.41158488 -0.104921885 0.35229337 -0.069889285
-0.32689226 -0.14576429
00000000: 5d14 3bbe 7302 31be 1f43 b73b 2eed 3c3e
00000010: a531 d03d dead 32bd dec8 5dbe 2744 693e
00000020: 686f d4bc fdd9 9cbd 4db5 87bf ebc0 ab3d
00000030: d441 553e 0f14 3a3e acba 073f c1e8 84bd
00000040: 8377 1c3e 398e dabd ac79 fcbd 5cc6 b13c
00000050: 3d29 e13d fbc1 c03e ebb9 693e fab5 773e
00000060: 4dba 273e 19af f73d 8d20 133e 9dbb 193e
00000070: 198a 423e 4f78 ba39 52b0 c3bb af8b a13d
00000080: 9477 dabd af3f 263e bd9a 0f3f 63be 3e3e
00000090: 0c25 c1bd 2d3e cebd d376 b53d c375 533e
000000a0: d41f 813a cfd1 e23e 22f0 823d 7575 b03a
000000b0: 25e0 803d 0395 d2bd 5065 e83d db89 ec3d
000000c0: a1ec 833e 9f5e a03a 1a0b a3be 3acd 0cbe
000000d0: bdac 5a3d f1ee 373e 67b0 6dbe 203c b43d
000000e0: e238 d2bd 2a17 953e 49e9 b5bc d9eb 42bd
000000f0: 657b 6fbe ce2a 3c3a c425 44be b449 f43b
00000100: cdd4 6e3d 1d3d 69be c218 3d3e dcd9 64bd
00000110: b0ec 70be ac4a 98bd 5c02 913d 857c 243e
00000120: 095a 533e b7f6 da3e e363 c7bd dda2 78be
00000130: 23a5 29be 21f4 8bbe c046 b2bd 285c 843b
00000140: ee03 d63c c688 aaba 5f66 153f 6539 353e
00000150: 8ce3 903d 0ba9 a7bd 47dc b93d 26df e53d
00000160: 0717 37bd fbe6 163d 6565 06be e29a 073e
00000170: 32eb 0b3e bdeb 40be 2aa3 d13d e39d 8b3f
00000180: 58eb 32be 0bd5 853e 034f 34be 2eb6 17be
00000190: 95cc 323d 427f 20be 14a1 1ebe 580c 0a3e
000001a0: 4fc1 9abc a5e5 c93d a9fe 6f3e c702 46bd
000001b0: 3319 d43d 1397 443e 2ca3 2a3d e503 c03d
000001c0: 6666 ca3d d903 0bbe 262f 63bd bb18 a23e
000001d0: f43e 5b3e 23cc 44be 9cc8 a63d ba9f 203e
000001e0: a7a7 973e 787f 533e deba 0f3f 3eb0 78bd
000001f0: 0e14 3bbe 129a cfbd 36d7 b53d 7139 853f
00000200: f398 0fbd 5fec fb3e db82 13be 5937 283e
00000210: be24 51bd 6eec bcbd 170a 353e 2abf 01bb
00000220: 8d4b 75bf 1b54 d3bd 0c64 0cbe 1635 51be
00000230: 3799 5dbd 5b57 b43c 86be 2a3e e95d 26be
00000240: 5ff3 b23d c35b 9f3e 4dc8 f3bd 9cc5 2b3e
00000250: bd8f 86bd 24c3 f3be 72ad 153e 0236 043e
00000260: b048 fcbd 052a 8e3c 42b5 c63d 5bbc 47be
00000270: 41bb d23e 49e1 d6bd cc5f b43e 1d22 8fbd
00000280: 6c5e a7be 3c43 15be

onnx::MatMul_57 f4 [9, 9]
0.99052596 0.6658607 -0.6684719 -0.12845095 0.38359016 0.37675574 0.24016334 0.02132839
0.5172843 0.3932364 -0.72688514 0.20238055 -0.6476402 0.35627353 0.6952139 0.18660939
0.14313456 0.9200131 -0.25613698 -0.10019295 -0.85187805 0.37111726 0.5006078 -0.22594811
0.6444289 0.32361454 0.2665889 0.4666681 0.8137934 -0.89825875 -0.6470637 -0.47993568
-0.32716143 0.27977347 -0.17542705 -0.34971857 0.11744581 0.5695844 -0.2108551 -0.113600224
0.5890399 0.03378046 -0.4936808 -0.6849487 -0.12228584 0.6851517 0.88310707 -0.31034663
0.86612374 -0.32734084 -1.0693674 -0.4292288 0.19846292 -0.7551905 -0.19928002 0.0035862625
-0.36651778 0.6373169 0.5062704 -0.26080307 -0.84642714 0.62883484 0.14348783 -0.4857105
-0.34868008 0.1272217 0.35712546 -0.27010596 0.20766902 1.056957 -0.76105577 0.17823493
0.22029865 -0.19040026 0.50444925 -0.31533024 -0.018852226 0.23959294 0.036199268 -0.66775864
-0.8787326
00000000: 1c93 7d3f d975 2a3f f920 2bbf a588 03be
00000010: ee65 c43e 21e6 c03e 61ed 753e e0b8 ae3c
00000020: be6c 043f 4856 c93e 2515 3abf d93c 4f3e
00000030: c0cb 25bf 7c69 b63e 8af9 313f 8816 3f3e
00000040: de91 123e fb85 6b3f 6324 83be f631 cdbd
00000050: ae14 5abf 1503 be3e d527 003f f15e 67be
00000060: 4bf9 243f ceb0 a53e 577e 883e 1fef ee3e
00000070: c454 503f 49f4 65bf f7a5 25bf 21ba f5be
00000080: b481 a7be 783e 8f3e 26a3 33be 500e b3be
00000090: 6e87 f03d 49d0 113f 66ea 57be 3ca7 e8bd
000000a0: 52cb 163f 615d 0a3d bbc3 fcbe cc58 2fbf
000000b0: 0071 fabd 1a66 2f3f 4e13 623f c1e5 9ebe
000000c0: 49ba 5d3f 3899 a7be 08e1 88bf e1c3 dbbe
000000d0: dd39 4b3e 2a54 41bf 1010 4cbe 8007 6b3b
000000e0: 38a8 bbbe 3327 233f f09a 013f fb87 85be
000000f0: 73af 58bf 52fb 203f 79ee 123e 0caf f8be
00000100: 3286 b2be 6846 023e 26d9 b63e 544b 8abe
00000110: 30a7 543e 5e4a 873f 8dd4 42bf 3883 363e
00000120: f895 613e 49f8 42be 9623 013f f772 a1be
00000130: fc6f 9abc da57 753e af45 143d 3bf2 2abf
00000140: 9ff4 60bf

onnx::MatMul_58 f4 [9, 18]
0.18392265 0.12666754 -0.23451099 -0.067498565 0.009661635 -0.15163521 -0.1458441 0.28947043
-0.037925087 0.00063848495 -0.0354172 0.1445987 0.32876548 0.15372805 -0.06913658 -0.04718892
0.33269244 -0.11742799 0.063997746 -0.5912174 -0.22728619 -0.18011743 0.15564755 -0.16592354
-0.11416556 0.55705166 -0.17941345 -0.24715967 -0.4030054 0.6995212 0.15743786 -0.122407965
-0.39825696 -0.00508513 -0.14125863 -0.2705157 -0.29278147 -0.21948016 0.17887163 0.0078680515
-0.20144022 -0.2885135 0.27590585 0.11518717 -0.21891913 0.3033225 0.23384699 -0.22992384
-0.20541728 -0.05795324 -0.1195546 0.15443346 0.15529618 0.17969689 -0.16445385 -0.483534
-0.39934614 -0.32244134 0.162069 -0.56341517 0.49842593 0.1260885 -0.12631638 -0.25115275
0.5353853 -0.038441658 0.15751582 0.04221489 0.45424122 -0.13266678 -0.002820516 0.10416785
0.21781763 -0.16717601 -0.20363836 0.29665887 -0.25199258 -0.27511072 0.21773843 0.19416559
0.20723288 -0.1903542 -0.29243502 -0.114342175 -0.26849017 0.3225728 0.27592036 0.008196513
-0.079944216 -0.104268834 -0.19258699 -0.31859988 0.38695875 0.450637 0.041141056 -0.014902925
0.0184958 -0.23300315 0.37299442 0.44534832 -0.05378693 0.5007115 -0.47187275 0.16676967
-0.13056189 0.15256305 0.39648294 -0.36075425 0.11856838 0.022121629 0.23019275 -0.11428174
0.22182302 0.03458401 -0.05436238 -0.018526357 -0.0775921 0.08695249 -0.027655125 -0.28631985
0.038143955 -0.29817677 0.014067213 0.13927695 -0.15978849 0.098598406 -0.40653163 0.8832937
-0.37252384 -0.52353615 -0.41943225 -0.33303297 0.014021294 -0.44174832 -0.32890615 -0.30377638
-0.22757259 0.026863756 0.26991716 0.3478875 -0.23359449 0.3273431 -0.08579979 -0.068798296
-0.14368856 0.24289148 0.2793786 0.21439874 0.12076931 -0.009257397 -0.2063272 0.012102565
-0.11760478 0.3152303 -0.15788767 -0.07821421 -0.12555043 0.056185246 -0.29150802 0.23692977
-0.029637298 0.13615832
00000000: 3856 3c3e 23b5 013e a623 70be b03c 8abd
00000010: d64b 1e3c 4346 1bbe 2858 15be 7835 943e
00000020: 5657 1bbd 0060 273a a011 11bd ae11 143e
00000030: f353 a83e e36a 1d3e 7b97 8dbd 2b49 41bd
00000040: aa56 aa3e 167e f0bd 4011 833d 065a 17bf
00000050: b6bd 68be b470 38be 1262 1f3e dce7 29be
00000060: a2cf e9bd f09a 0e3f 29b8 37be 6d17 7dbe
00000070: b956 cebe d213 333f 6437 213e 07b1 fabd
00000080: 56e8 cbbe 2aa1 a6bb 1aa6 10be 0981 8abe
00000090: 74e7 95be 68bf 60be 202a 373e 00e9 003c
000000a0: 5846 4ebe 0bb8 93be 8843 8d3e 40e7 eb3d
000000b0: 562c 60be 164d 9b3e 9675 6f3e 2871 6bbe
000000c0: e858 52be 6060 6dbd 0bd9 f4bd ce23 1e3e
000000d0: f605 1f3e 7602 383e 9766 28be c591 f7be
000000e0: 1977 ccbe 0817 a5be 6af5 253e fa3b 10bf
000000f0: af31 ff3e 581d 013e 1559 01be 1897 80be
00000100: 030f 093f 0075 1dbd d44b 213e 85e9 2c3d
00000110: 4e92 e83e cdd9 07be 68d8 38bb f455 d53d
00000120: 960b 5f3e 3030 2bbe 9386 50be ace3 973e
00000130: 2c05 81be 50db 8cbe d3f6 5e3e 58d3 463e
00000140: db34 543e 36ec 42be 0bba 95be 3b2c eabd
00000150: 8b77 89be 4328 a53e 6f45 8d3e ab4a 063c
00000160: cbb9 a3bd e68a d5bd 8635 45be 861f a3be
00000170: 751f c63e e5b9 e63e 8683 283d 662b 74bc
00000180: 8184 973c 6198 6ebe 20f9 be3e b204 e43e
00000190: af4f 5cbd a12e 003f 4e99 f1be abc5 2a3e
000001a0: 04b2 05be 7d39 1c3e d0ff ca3e c8b4 b8be
000001b0: fbd3 f23d 6b38 b53c a6b7 6b3e 8b0c eabd
000001c0: 9325 633e f6a7 0d3d 16ab 5ebd 96c4 97bc
000001d0: 9be8 9ebd 2614 b23d 008d e2bc 8498 92be
000001e0: d63c 1c3d a0aa 98be 2b7a 663c 9e9e 0e3e
000001f0: 989f 23be f6ed c93d ea24 d0be 891f 623f
00000200: 72bb bebe 7706 06bf d3bf d6be 4c83 aabe
00000210: 92b9 653c d62c e2be 6366 a8be 9488 9bbe
00000220: ca08 69be 6111 dc3c 9532 8a3e 4f1e b23e
00000230: 6533 6fbe 8499 a73e cdb7 afbd 1fe6 8cbd
00000240: 1823 13be 8bb8 783e b60a 8f3e 588b 5b3e
00000250: e655 f73d 56ac 17bc 7047 53be d649 463c
00000260: c6da f0bd de65 a13e 4ead 21be c62e a0bd
00000270: 4b90 00be 8022 663d 8a40 95be b89d 723e
00000280: ebc9 f2bc 166d 0b3e

onnx::MatMul_59 f4 [18, 9]
0.017878417 0.014881434 0.09681653 -0.14982194 0.1915943 0.19335411 0.35695717 -0.2287022
-0.12089711 0.80822647 0.100715764 0.0037005455 -0.20089647 0.02549334 0.23460355 0.06786486
0.075503156 0.33584875 -0.48098755 0.14025095 0.2833107 0.10041773 -0.18947767 0.059686963
0.08950779 -0.22351825 0.24482392 -0.3482605 -0.10338869 0.4979781 0.077966556 -0.12010922
-0.00879512 0.17309107 -0.09103329 0.19171618 -0.088257 -0.1679432 0.23735821 -0.022460843
0.3457983 0.04636423 -0.12210776 -0.22734676 -0.17369038 0.46343735 0.16495319 -0.1480224
0.053361256 0.05428336 0.085240655 0.20917276 -0.15093575 -0.34815657 0.021572666 0.21999787
0.057525855 -0.19740126 -0.4379073 0.13897915 -0.10810773 0.042848174 0.0076151304 0.2285165
-0.11886179 -0.28815222 -0.16441323 0.37112024 -0.0019943046 -0.017713903 -0.119569965 0.22060704
0.31726703 0.02069354 -0.4507181 -0.036034346 -0.08708985 -0.014487136 0.021647336 -0.19486704
-0.26891273 -0.5138153 -0.17598462 0.25778908 0.05826948 0.15068343 -0.21019325 -0.27373752
-0.17971388 0.61522883 -0.1856545 -0.12365402 0.0610153 0.012368386 0.83279914 0.012844252
-0.05794413 0.122407146 0.044392332 0.4507243 0.14980215 0.19452776 0.039872997 0.1319266
-0.017855654 -0.34690225 0.00322828 0.10176311 0.75336236 0.1404573 -0.6674824 -0.16007067
-0.00021538483 0.21074739 0.020545047 -0.02590823 -1.0540264 -0.14062336 0.044785045 -0.16039738
-0.22853528 -0.18942137 0.20877565 -0.2601825 0.10070453 0.08005189 -0.37506577 0.20363058
-0.12537853 -0.09444418 0.9902895 0.17682919 0.27696487 0.12576687 -0.25691506 -0.013979587
0.028541453 0.3243688 0.20751749 -0.14174962 0.06944416 -0.058168434 0.04222777 -0.17084694
-0.23122546 0.010056322 0.28167397 0.123395436 -0.0607051 0.23172107 -0.29123157 0.05348255
0.03864184 -0.16354595 0.015908638 -0.057118695 -0.10488653 -0.23379481 0.22050366 0.4370605
-0.09797611 -0.03996566
00000000: c275 923c 42d1 733c bf47 c63d ec6a 19be
00000010: 4c31 443e 9ffe 453e 17c3 b63e e930 6abe
00000020: e798 f7bd eee7 4e3f 1144 ce3d da84 723b
00000030: ceb7 4dbe 69d7 d03c ea3b 703e bbfc 8a3d
00000040: 66a1 9a3d 5ef4 ab3e 0044 f6be f29d 0f3e
00000050: 1a0e 913e d0a7 cd3d 6f06 42be 517a 743d
00000060: dc4f b73d f8e1 64be 1fb3 7a3e 334f b2be
00000070: 73bd d3bd fcf6 fe3e eeac 9f3d d3fb f5bd
00000080: 6819 10bc c93e 313e a96f babd 3f51 443e
00000090: 16c0 b4bd 4df9 2bbe 080e 733e cdff b7bc
000000a0: 7a0c b13e 6be8 3d3d a213 fabd 97cd 68be
000000b0: e4db 31be a947 ed3e 7de9 283e 2f93 17be
000000c0: 5591 5a3d 3a58 5e3d a792 ae3d 6231 563e
000000d0: e78e 1abe 9441 b2be 29b9 b03c 1f47 613e
000000e0: 3ba0 6b3d 8e23 4abe 6335 e0be 8d50 0e3e
000000f0: 9667 ddbd 9181 2f3d 5888 f93b 3b00 6a3e
00000100: cf6d f3bd b088 93be f15b 28be 7903 be3e
00000110: e1b2 02bb bf1c 91bc 19e1 f4bd d0e6 613e
00000120: d370 a23e 8085 a93c 86c4 e6be c098 13bd
00000130: 2a5c b2bd 745b 6dbc c155 b13c 3a8b 47be
00000140: eeae 89be 6689 03bf 5035 34be eefc 833e
00000150: faab 6e3d c24c 1a3e e63c 57be 5327 8cbe
00000160: ea06 38be a37f 1d3f 371c 3ebe 523e fdbd
00000170: 2eeb 793d c5a4 4a3c 5332 553f b370 523c
00000180: d356 6dbd 99b0 fa3d bcd4 353d 56c5 e63e
00000190: bc65 193e 4932 473e de51 233d c417 073e
000001a0: 0546 92bc 2c9d b1be 8d91 533b 2d69 d03d
000001b0: 5bdc 403f 0ad4 0f3e 20e0 2abf 91e9 23be
000001c0: edd8 61b9 2ace 573e 164e a83c 7f3d d4bc
000001d0: 56ea 86bf 92ff 0fbe 8670 373d 363f 24be
000001e0: 2705 6abe adf7 41be 49c9 553e a436 85be
000001f0: 2d3e ce3d 3ff2 a33d 9f08 c0be 8984 503e
00000200: 3b63 00be f36b c1bd 9d83 7d3f b612 353e
00000210: 57ce 8d3e 08c9 003e 5f8a 83be a30a 65bc
00000220: c4cf e93c ab13 a63e 777f 543e d026 11be
00000230: bd38 8e3d 0642 6ebd 07f7 2c3d 80f2 2ebe
00000240: 5ec6 6cbe 46c3 243c 9237 903e bfb6 fc3d
00000250: e9a5 78bd 4a48 6d3e 4e1c 95be 8510 5b3d
00000260: e846 1e3d 9778 27be d552 823c 4bf5 69bd
00000270: c0ce d6bd e867 6fbe b6cb 613e 65c6 df3e
00000280: b3a7 c8bd 08b3 23bd

onnx::MatMul_60 f4 [9, 9]
0.99095124 -0.48797008 -1.0024728 -4.498647 0.28567427 -2.3121426 -1.1457425 0.82227826
-0.56554854 -0.39410865 1.1849717 1.1983013 4.4959245 0.40039724 1.8633147 1.3420047
0.5319755 0.7910727 -0.6571375 1.2118063 2.3726249 6.1365304 0.6779261 3.5720716
0.5842757 -0.86088556 0.65362304 0.7410007 -1.1266062 -0.7314133 -5.9712205 0.5617709
-1.0959233 -2.283263 -0.13574076 -0.1832301 0.2906417 0.39505047 0.2833795 0.59197855
1.2483425 -1.8678269 -1.7517734 -0.03959614 0.25919002 -0.04242176 -0.13184807 0.6525481
-0.2335842 -0.039070517 3.024874 0.47084677 0.28553736 0.7932123 -0.06296543 0.55086195
0.14329311 1.8987869 0.65791714 -1.2590601 0.55835366 1.4308742 0.013819104 0.6309045
-0.6795902 -0.8069032 -3.5561414 0.24991032 -1.7760305 -1.0393729 1.7499398 -0.24328479
-1.2041106 1.9701312 2.9063425 10.353586 -0.84347427 5.9987817 4.1888733 -1.1053939
0.90909326
00000000: fbae 7d3f 37d7 f9be 0751 80bf ebf4 8fc0
00000010: e643 923e 25fa 13c0 b1a7 92bf d480 523f
00000020: cac7 10bf 9cc8 c9be 27ad 973f f061 993f
00000030: 9dde 8f40 de00 cd3e 1981 ee3f cfc6 ab3f
00000040: 8c2f 083f be83 4a3f 2a3a 28bf 781c 9b3f
00000050: 16d9 1740 755e c440 918c 2d3f d29c 6440
00000060: 1893 153f ff62 5cbf d753 273f 39b2 3d3f
00000070: a234 90bf e73d 3bbf 3d14 bfc0 38d0 0f3f
00000080: 3747 8cbf fb20 12c0 a0ff 0abe aca0 3bbe
00000090: fdce 943e 0e44 ca3e 1e17 913e e88b 173f
000000a0: b0c9 9f3f f414 efbf 1c3a e0bf 902f 22bd
000000b0: 8eb4 843e 70c2 2dbd 2e03 07be 640d 273f
000000c0: b230 6fbe 6808 20bd 8997 4140 d412 f13e
000000d0: f431 923e f60f 4b3f 05f4 80bd 4a05 0d3f
000000e0: 6ebb 123e 730b f33f 426d 283f e228 a1bf
000000f0: 44f0 0e3f e326 b73f 8669 623c f582 213f
00000100: a0f9 2dbf 3591 4ebf d297 63c0 7ee8 7f3e
00000110: f854 e3bf 2c0a 85bf 07fe df3f a61f 79be
00000120: 4c20 9abf 422d fc3f 8401 3a40 4aa8 2541
00000130: eeed 57bf 05f6 bf40 400b 8640 8c7d 8dbf
00000140: 56ba 683f
