experiment_sources/concrete/misc/concrete_flow_exp_2024-11-19 11:52:30.742401_5fe54_00005_best_model.pt (torch, 10082 bytes, 15 tensors)

trainable_layers.0.L_raw f4 [9, 9]
1.0 0.0 0.0 0.0 0.0 0.0 0.0 0.0
0.0 -0.49242592 1.0 0.0 0.0 0.0 0.0 0.0
0.0 0.0 -1.0116267 0.80695176 1.0 0.0 0.0 0.0
0.0 0.0 0.0 -4.5397263 2.7316306 0.73356014 1.0 0.0
0.0 0.0 0.0 0.0 0.28828287 0.51873124 0.41027406 -0.4881209
1.0 0.0 0.0 0.0 0.0 -2.3332558 0.95242333 1.2035562
-0.6023445 -1.6873617 1.0 0.0 0.0 0.0 -1.1562047 0.894472
-0.9787028 0.12695284 -1.8163624 0.4132465 1.0 0.0 0.0 0.8297868
0.86688834 -1.0953323 -0.6085171 -0.3894283 0.7293204 1.193544 1.0 0.0
-0.5707128 0.57134783 -0.23094861 -0.8286615 0.43331462 0.8030755 -0.41301444 0.14929439
1.0
00000000: 0000 803f 0000 0000 0000 0000 0000 0000
00000010: 0000 0000 0000 0000 0000 0000 0000 0000
00000020: 0000 0000 401f fcbe 0000 803f 0000 0000
00000030: 0000 0000 0000 0000 0000 0000 0000 0000
00000040: 0000 0000 0000 0000 fc7c 81bf 6494 4e3f
00000050: 0000 803f 0000 0000 0000 0000 0000 0000
00000060: 0000 0000 0000 0000 0000 0000 7045 91c0
00000070: 09d3 2e40 99ca 3b3f 0000 803f 0000 0000
00000080: 0000 0000 0000 0000 0000 0000 0000 0000
00000090: d099 933e 92cb 043f 710f d23e fcea f9be
000000a0: 0000 803f 0000 0000 0000 0000 0000 0000
000000b0: 0000 0000 1054 15c0 04d2 733f 210e 9a3f
000000c0: 4033 1abf 78fb d7bf 0000 803f 0000 0000
000000d0: 0000 0000 0000 0000 84fe 93bf 1efc 643f
000000e0: 448c 7abf edff 013e 907e e8bf 0c95 d33e
000000f0: 0000 803f 0000 0000 0000 0000 e86c 543f
00000100: 65ec 5d3f d933 8cbf c7c7 1bbf 2563 c7be
00000110: beb4 3a3f 0dc6 983f 0000 803f 0000 0000
00000120: 3c1a 12bf da43 123f cb7d 6cbe 2923 54bf
00000130: 6adb dd3e 5b96 4d3f a176 d3be a1e0 183e
00000140: 0000 803f

trainable_layers.0.U_raw f4 [9, 9]
0.99095124 -0.39410865 -0.6571375 0.7410007 0.2906417 -0.04242176 -0.06296543 0.6309045
-1.2041106 0.0 0.99090236 0.8882147 -0.7617182 0.53817 -0.15273763 0.51985615
-0.36891654 1.377196 0.0 0.0 0.9911006 0.63287264 0.14312316 0.732885
-0.33990324 0.12903452 0.5769013 0.0 0.0 0.0 -0.99079734 0.3363412
-0.5465598 0.4422256 0.22108118 0.7020714 0.0 0.0 0.0 0.0
0.99084544 -0.51508224 0.7617164 0.31437474 -1.1047363 0.0 0.0 0.0
0.0 0.0 0.9909484 0.059658226 0.55572635 -0.25792426 0.0 0.0
0.0 0.0 0.0 0.0 0.9906494 0.45965353 0.14028144 0.0
0.0 0.0 0.0 0.0 0.0 0.0 0.99060744 -0.65053105
0.0 0.0 0.0 0.0 0.0 0.0 0.0 0.0
0.9909381
00000000: fbae 7d3f 9cc8 c9be 2a3a 28bf 39b2 3d3f
00000010: fdce 943e 70c2 2dbd 05f4 80bd f582 213f
00000020: 4c20 9abf 0000 0000 c7ab 7d3f 0a62 633f
00000030: f7ff 42bf 82c5 093f 4167 1cbe 4b15 053f
00000040: a1e2 bcbe f547 b03f 0000 0000 0000 0000
00000050: c5b8 7d3f f103 223f e18e 123e 5a9e 3b3f
00000060: cc07 aebe a021 043e ceaf 133f 0000 0000
00000070: 0000 0000 0000 0000 e5a4 7dbf ea34 ac3e
00000080: 58eb 0bbf 656b e23e 1b63 623e f4ba 333f
00000090: 0000 0000 0000 0000 0000 0000 0000 0000
000000a0: 0ca8 7d3f 6edc 03bf d9ff 423f baf5 a03e
000000b0: 0068 8dbf 0000 0000 0000 0000 0000 0000
000000c0: 0000 0000 0000 0000 cbae 7d3f 2f5c 743d
000000d0: 1544 0e3f a60e 84be 0000 0000 0000 0000
000000e0: 0000 0000 0000 0000 0000 0000 0000 0000
000000f0: 339b 7d3f b557 eb3e f0a5 0f3e 0000 0000
00000100: 0000 0000 0000 0000 0000 0000 0000 0000
00000110: 0000 0000 0000 0000 7398 7d3f 3489 26bf
00000120: 0000 0000 0000 0000 0000 0000 0000 0000
00000130: 0000 0000 0000 0000 0000 0000 0000 0000
00000140: 1fae 7d3f

trainable_layers.0.bias f4 [9]
-0.5782008 0.6431251 -0.18958431 -0.17521772 0.13057101 0.41010913 0.58906436 -0.13217051
0.39539155
00000000: f804 14bf d9a3 243f 6422 42be 466c 33be
00000010: 68b4 053e d3f9 d13e eccc 163f b557 07be
00000020: c370 ca3e

trainable_layers.1.conditioner.layers.0.weight f4 [18, 9]
0.18392265 0.063997746 -0.29278147 -0.16445385 0.21781763 -0.19258699 0.11856838 -0.40653163
-0.14368856 0.12666754 -0.5912174 -0.21948016 -0.483534 -0.16717601 -0.31859988 0.022121629
0.8832937 0.24289148 -0.23451099 -0.22728619 0.17887163 -0.39934614 -0.20363836 0.38695875
0.23019275 -0.37252384 0.2793786 -0.067498565 -0.18011743 0.0078680515 -0.32244134 0.29665887
0.450637 -0.11428174 -0.52353615 0.21439874 0.009661635 0.15564755 -0.20144022 0.162069
-0.25199258 0.041141056 0.22182302 -0.41943225 0.12076931 -0.15163521 -0.16592354 -0.2885135
-0.56341517 -0.27511072 -0.014902925 0.03458401 -0.33303297 -0.009257397 -0.1458441 -0.11416556
0.27590585 0.49842593 0.21773843 0.0184958 -0.05436238 0.014021294 -0.2063272 0.28947043
0.55705166 0.11518717 0.1260885 0.19416559 -0.23300315 -0.018526357 -0.44174832 0.012102565
-0.037925087 -0.17941345 -0.21891913 -0.12631638 0.20723288 0.37299442 -0.0775921 -0.32890615
-0.11760478 0.00063848495 -0.24715967 0.3033225 -0.25115275 -0.1903542 0.44534832 0.08695249
-0.30377638 0.3152303 -0.0354172 -0.4030054 0.23384699 0.5353853 -0.29243502 -0.05378693
-0.027655125 -0.22757259 -0.15788767 0.1445987 0.6995212 -0.22992384 -0.038441658 -0.114342175
0.5007115 -0.28631985 0.026863756 -0.07821421 0.32876548 0.15743786 -0.20541728 0.15751582
-0.26849017 -0.47187275 0.038143955 0.26991716 -0.12555043 0.15372805 -0.122407965 -0.05795324
0.04221489 0.3225728 0.16676967 -0.29817677 0.3478875 0.056185246 -0.06913658 -0.39825696
-0.1195546 0.45424122 0.27592036 -0.13056189 0.014067213 -0.23359449 -0.29150802 -0.04718892
-0.00508513 0.15443346 -0.13266678 0.008196513 0.15256305 0.13927695 0.3273431 0.23692977
0.33269244 -0.14125863 0.15529618 -0.002820516 -0.079944216 0.39648294 -0.15978849 -0.08579979
-0.029637298 -0.11742799 -0.2705157 0.17969689 0.10416785 -0.104268834 -0.36075425 0.098598406
-0.068798296 0.13615832
00000000: 3856 3c3e 4011 833d 74e7 95be 9766 28be
00000010: 960b 5f3e 8635 45be fbd3 f23d ea24 d0be
00000020: 1823 13be 23b5 013e 065a 17bf 68bf 60be
00000030: c591 f7be 3030 2bbe 861f a3be 6b38 b53c
00000040: 891f 623f 8bb8 783e a623 70be b6bd 68be
00000050: 202a 373e 1977 ccbe 9386 50be 751f c63e
00000060: a6b7 6b3e 72bb bebe b60a 8f3e b03c 8abd
00000070: b470 38be 00e9 003c 0817 a5be ace3 973e
00000080: e5b9 e63e 8b0c eabd 7706 06bf 588b 5b3e
00000090: d64b 1e3c 1262 1f3e 5846 4ebe 6af5 253e
000000a0: 2c05 81be 8683 283d 9325 633e d3bf d6be
000000b0: e655 f73d 4346 1bbe dce7 29be 0bb8 93be
000000c0: fa3b 10bf 50db 8cbe 662b 74bc f6a7 0d3d
000000d0: 4c83 aabe 56ac 17bc 2858 15be a2cf e9bd
000000e0: 8843 8d3e af31 ff3e d3f6 5e3e 8184 973c
000000f0: 16ab 5ebd 92b9 653c 7047 53be 7835 943e
00000100: f09a 0e3f 40e7 eb3d 581d 013e 58d3 463e
00000110: 6198 6ebe 96c4 97bc d62c e2be d649 463c
00000120: 5657 1bbd 29b8 37be 562c 60be 1559 01be
00000130: db34 543e 20f9 be3e 9be8 9ebd 6366 a8be
00000140: c6da f0bd 0060 273a 6d17 7dbe 164d 9b3e
00000150: 1897 80be 36ec 42be b204 e43e 2614 b23d
00000160: 9488 9bbe de65 a13e a011 11bd b956 cebe
00000170: 9675 6f3e 030f 093f 0bba 95be af4f 5cbd
00000180: 008d e2bc ca08 69be 4ead 21be ae11 143e
00000190: d213 333f 2871 6bbe 0075 1dbd 3b2c eabd
000001a0: a12e 003f 8498 92be 6111 dc3c c62e a0bd
000001b0: f353 a83e 6437 213e e858 52be d44b 213e
000001c0: 8b77 89be 4e99 f1be d63c 1c3d 9532 8a3e
000001d0: 4b90 00be e36a 1d3e 07b1 fabd 6060 6dbd
000001e0: 85e9 2c3d 4328 a53e abc5 2a3e a0aa 98be
000001f0: 4f1e b23e 8022 663d 7b97 8dbd 56e8 cbbe
00000200: 0bd9 f4bd 4e92 e83e 6f45 8d3e 04b2 05be
00000210: 2b7a 663c 6533 6fbe 8a40 95be 2b49 41bd
00000220: 2aa1 a6bb ce23 1e3e cdd9 07be ab4a 063c
00000230: 7d39 1c3e 9e9e 0e3e 8499 a73e b89d 723e
00000240: aa56 aa3e 1aa6 10be f605 1f3e 68d8 38bb
00000250: cbb9 a3bd d0ff ca3e 989f 23be cdb7 afbd
00000260: ebc9 f2bc 167e f0bd 0981 8abe 7602 383e
00000270: f455 d53d e68a d5bd c8b4 b8be f6ed c93d
00000280: 1fe6 8cbd 166d 0b3e

trainable_layers.1.conditioner.layers.0.bias f4 [18]
0.5352175 -0.081617355 -0.415427 -0.4886315 -0.04643412 0.47809118 0.17083982 -0.15999691
0.81984293 -0.4590401 0.71934396 0.31018883 -0.96835893 0.21112436 0.68950343 0.049554575
-0.47218123 0.6319045
00000000: 0404 093f 0027 a7bd d9b2 d4be e82d fabe
00000010: b431 3ebd 5ec8 f43e a2f0 2e3e 3bd6 23be
00000020: 3ae1 513f 4e07 ebbe ed26 383f 12d1 9e3e
00000030: 5fe6 77bf fc30 583e 4c83 303f bdf9 4a3d
00000040: bdc1 f1be 7ec4 213f

trainable_layers.1.conditioner.layers.1.weight f4 [9, 18]
0.017878417 0.80822647 -0.48098755 -0.3482605 -0.088257 0.46343735 0.021572666 0.2285165
0.31726703 -0.5138153 -0.1856545 0.4507243 0.75336236 -0.14062336 -0.37506577 -0.013979587
-0.23122546 -0.16354595 0.014881434 0.100715764 0.14025095 -0.10338869 -0.1679432 0.16495319
0.21999787 -0.11886179 0.02069354 -0.17598462 -0.12365402 0.14980215 0.1404573 0.044785045
0.20363058 0.028541453 0.010056322 0.015908638 0.09681653 0.0037005455 0.2833107 0.4979781
0.23735821 -0.1480224 0.057525855 -0.28815222 -0.4507181 0.25778908 0.0610153 0.19452776
-0.6674824 -0.16039738 -0.12537853 0.3243688 0.28167397 -0.057118695 -0.14982194 -0.20089647
0.10041773 0.077966556 -0.022460843 0.053361256 -0.19740126 -0.16441323 -0.036034346 0.05826948
0.012368386 0.039872997 -0.16007067 -0.22853528 -0.09444418 0.20751749 0.123395436 -0.10488653
0.1915943 0.02549334 -0.18947767 -0.12010922 0.3457983 0.05428336 -0.4379073 0.37112024
-0.08708985 0.15068343 0.83279914 0.1319266 -0.00021538483 -0.18942137 0.9902895 -0.14174962
-0.0607051 -0.23379481 0.19335411 0.23460355 0.059686963 -0.00879512 0.04636423 0.085240655
0.13897915 -0.0019943046 -0.014487136 -0.21019325 0.012844252 -0.017855654 0.21074739 0.20877565
0.17682919 0.06944416 0.23172107 0.22050366 0.35695717 0.06786486 0.08950779 0.17309107
-0.12210776 0.20917276 -0.10810773 -0.017713903 0.021647336 -0.27373752 -0.05794413 -0.34690225
0.020545047 -0.2601825 0.27696487 -0.058168434 -0.29123157 0.4370605 -0.2287022 0.075503156
-0.22351825 -0.09103329 -0.22734676 -0.15093575 0.042848174 -0.119569965 -0.19486704 -0.17971388
0.122407146 0.00322828 -0.02590823 0.10070453 0.12576687 0.04222777 0.05348255 -0.09797611
-0.12089711 0.33584875 0.24482392 0.19171618 -0.17369038 -0.34815657 0.0076151304 0.22060704
-0.26891273 0.61522883 0.044392332 0.10176311 -1.0540264 0.08005189 -0.25691506 -0.17084694
0.03864184 -0.03996566
00000000: c275 923c eee7 4e3f 0044 f6be 334f b2be
00000010: 16c0 b4bd a947 ed3e 29b9 b03c 3b00 6a3e
00000020: d370 a23e 6689 03bf 371c 3ebe 56c5 e63e
00000030: 5bdc 403f 92ff 0fbe 9f08 c0be a30a 65bc
00000040: 5ec6 6cbe 9778 27be 42d1 733c 1144 ce3d
00000050: f29d 0f3e 73bd d3bd 4df9 2bbe 7de9 283e
00000060: 1f47 613e cf6d f3bd 8085 a93c 5035 34be
00000070: 523e fdbd bc65 193e 0ad4 0f3e 8670 373d
00000080: 8984 503e c4cf e93c 46c3 243c d552 823c
00000090: bf47 c63d da84 723b 1a0e 913e fcf6 fe3e
000000a0: 080e 733e 2f93 17be 3ba0 6b3d b088 93be
000000b0: 86c4 e6be eefc 833e 2eeb 793d 4932 473e
000000c0: 20e0 2abf 363f 24be 3b63 00be ab13 a63e
000000d0: 9237 903e 4bf5 69bd ec6a 19be ceb7 4dbe
000000e0: d0a7 cd3d eeac 9f3d cdff b7bc 5591 5a3d
000000f0: 8e23 4abe f15b 28be c098 13bd faab 6e3d
00000100: c5a4 4a3c de51 233d 91e9 23be 2705 6abe
00000110: f36b c1bd 777f 543e bfb6 fc3d c0ce d6bd
00000120: 4c31 443e 69d7 d03c 6f06 42be d3fb f5bd
00000130: 7a0c b13e 3a58 5e3d 6335 e0be 7903 be3e
00000140: 2a5c b2bd c24c 1a3e 5332 553f c417 073e
00000150: edd8 61b9 adf7 41be 9d83 7d3f d026 11be
00000160: e9a5 78bd e867 6fbe 9ffe 453e ea3b 703e
00000170: 517a 743d 6819 10bc 6be8 3d3d a792 ae3d
00000180: 8d50 0e3e e1b2 02bb 745b 6dbc e63c 57be
00000190: b370 523c 0546 92bc 2ace 573e 49c9 553e
000001a0: b612 353e bd38 8e3d 4a48 6d3e b6cb 613e
000001b0: 17c3 b63e bbfc 8a3d dc4f b73d c93e 313e
000001c0: a213 fabd 6231 563e 9667 ddbd bf1c 91bc
000001d0: c155 b13c 5327 8cbe d356 6dbd 2c9d b1be
000001e0: 164e a83c a436 85be 57ce 8d3e 0642 6ebd
000001f0: 4e1c 95be 65c6 df3e e930 6abe 66a1 9a3d
00000200: f8e1 64be a96f babd 97cd 68be e78e 1abe
00000210: 9181 2f3d 19e1 f4bd 3a8b 47be ea06 38be
00000220: 99b0 fa3d 8d91 533b 7f3d d4bc 2d3e ce3d
00000230: 08c9 003e 07f7 2c3d 8510 5b3d b3a7 c8bd
00000240: e798 f7bd 5ef4 ab3e 1fb3 7a3e 3f51 443e
00000250: e4db 31be 9441 b2be 5888 f93b d0e6 613e
00000260: eeae 89be a37f 1d3f bcd4 353d 2d69 d03d
00000270: 56ea 86bf 3ff2 a33d 5f8a 83be 80f2 2ebe
00000280: e846 1e3d 08b3 23bd

trainable_layers.1.conditioner.layers.1.bias f4 [9]
-0.2512525 0.045494515 0.0020996518 0.09498593 -0.0846792 0.20590593 0.07060214 0.06396512
0.25643674
00000000: 2ba4 80be 7558 3a3d 509a 093b fc87 c23d
00000010: 4a6c adbd 01d9 523e db97 903d 2500 833d
00000020: ad4b 833e

trainable_layers.2.L_raw f4 [9, 9]
1.0 0.0 0.0 0.0 0.0 0.0 0.0 0.0
0.0 0.67222947 1.0 0.0 0.0 0.0 0.0 0.0
0.0 0.0 -0.6748656 -0.47190073 1.0 0.0 0.0 0.0
0.0 0.0 0.0 -0.12967953 0.60192424 -0.2973151 1.0 0.0
0.0 0.0 0.0 0.0 0.38725907 -0.20579395 -0.62034374 0.7803653
1.0 0.0 0.0 0.0 0.0 0.3803593 -0.5504703 0.08972444
0.20005207 0.32611522 1.0 0.0 0.0 0.0 0.24246041 -0.09207258
-0.7198084 0.037687603 -0.39505985 0.7018415 1.0 0.0 0.0 0.021532388
-0.1358587 -0.3420696 0.23853378 -0.5045766 0.29550147 -0.4742108 1.0 0.0
0.52223194 -0.72097534 -0.45647067 0.39504826 0.3629492 0.6391374 -0.082059 -0.10507911
1.0
00000000: 0000 803f 0000 0000 0000 0000 0000 0000
00000010: 0000 0000 0000 0000 0000 0000 0000 0000
00000020: 0000 0000 3b17 2c3f 0000 803f 0000 0000
00000030: 0000 0000 0000 0000 0000 0000 0000 0000
00000040: 0000 0000 0000 0000 fec3 2cbf f99c f1be
00000050: 0000 803f 0000 0000 0000 0000 0000 0000
00000060: 0000 0000 0000 0000 0000 0000 b6ca 04be
00000070: b517 1a3f af39 98be 0000 803f 0000 0000
00000080: 0000 0000 0000 0000 0000 0000 0000 0000
00000090: d246 c63e a6bb 52be d9ce 1ebf 05c6 473f
000000a0: 0000 803f 0000 0000 0000 0000 0000 0000
000000b0: 0000 0000 74be c23e 9feb 0cbf 72c1 b73d
000000c0: 73da 4c3e 93f8 a63e 0000 803f 0000 0000
000000d0: 0000 0000 0000 0000 8b47 783e 8c90 bcbd
000000e0: 5d45 38bf 515e 1a3d 4945 cabe e2ab 333f
000000f0: 0000 803f 0000 0000 0000 0000 b164 b03c
00000100: 8b1e 0bbe bf23 afbe 3342 743e ef2b 01bf
00000110: f84b 973e c2cb f2be 0000 803f 0000 0000
00000120: feb0 053f d791 38bf 86b6 e9be c443 ca3e
00000130: 7ad4 b93e 829e 233f 8d0e a8bd b733 d7bd
00000140: 0000 803f

trainable_layers.2.U_raw f4 [9, 9]
0.99052596 0.3932364 -0.25613698 0.4666681 0.11744581 0.6851517 -0.19928002 -0.4857105
0.22029865 0.0 -0.99123025 0.07198988 0.5000854 0.4906339 0.42252794 0.13754816
-0.022171155 -0.3384915 0.0 0.0 -0.990764 -0.34732985 0.09993553 0.3514299
-0.43609592 -0.21103019 0.49338683 0.0 0.0 0.0 -0.9908263 -0.363982
0.80512947 0.39902288 0.24474163 0.06367559 0.0 0.0 0.0 0.0
0.99056077 -0.9160061 0.029837022 -0.40847197 0.08255484 0.0 0.0 0.0
0.0 0.0 -0.99125826 -0.15971607 0.48339137 -0.11445885 0.0 0.0
0.0 0.0 0.0 0.0 -0.9905062 0.5109211 0.41731006 0.0
0.0 0.0 0.0 0.0 0.0 0.0 -0.9908395 -0.29153442
0.0 0.0 0.0 0.0 0.0 0.0 0.0 0.0
-0.99096036
00000000: 1c93 7d3f 4856 c93e 6324 83be 1fef ee3e
00000010: 6e87 f03d 1a66 2f3f 1010 4cbe 0caf f8be
00000020: f895 613e 0000 0000 44c1 7dbf 6e6f 933d
00000030: 9905 003f 5e34 fb3e 9555 d83e 6dd9 0c3e
00000040: 48a0 b5bc c24e adbe 0000 0000 0000 0000
00000050: b6a2 7dbf 38d5 b1be 00ab cc3d 9fee b33e
00000060: f747 dfbe 4c18 58be 339d fc3e 0000 0000
00000070: 0000 0000 0000 0000 cba6 7dbf d95b babe
00000080: f71c 4e3f ba4c cc3e 8d9d 7a3e 5968 823d
00000090: 0000 0000 0000 0000 0000 0000 0000 0000
000000a0: 6495 7d3f 607f 6abf c56c f43c 3d23 d1be
000000b0: 8312 a93d 0000 0000 0000 0000 0000 0000
000000c0: 0000 0000 0000 0000 1ac3 7dbf 9c8c 23be
000000d0: 137f f73e 6769 eabd 0000 0000 0000 0000
000000e0: 0000 0000 0000 0000 0000 0000 0000 0000
000000f0: d091 7dbf bacb 023f aaa9 d53e 0000 0000
00000100: 0000 0000 0000 0000 0000 0000 0000 0000
00000110: 0000 0000 0000 0000 a8a7 7dbf 0044 95be
00000120: 0000 0000 0000 0000 0000 0000 0000 0000
00000130: 0000 0000 0000 0000 0000 0000 0000 0000
00000140: 94af 7dbf

trainable_layers.2.bias f4 [9]
0.32803687 0.24958001 -0.088281296 -0.047225874 -0.07998441 -0.19701432 -0.2896023 -0.044470817
-0.54652655
00000000: 73f4 a73e e791 7f3e d3cc b4bd eb6f 41bd
00000010: dece a3bd 1fbe 49be c146 94be 0827 36bd
00000020: 2ae9 0bbf

trainable_layers.3.conditioner.layers.0.weight f4 [18, 9]
0.12456069 -0.25455472 0.19689466 -0.06593394 -0.37348807 0.15545282 -0.3986699 -0.32149142
0.10557416 -0.033652697 -0.25388002 -0.10599494 -0.27390525 -0.2509322 -0.26840755 0.99889034
-0.22443978 0.29220635 0.34660965 -0.29699406 0.21794556 0.08795162 0.0916273 0.31275523
-0.34021235 0.24986029 0.24613199 -0.047950994 0.15885167 -0.46636122 0.21945918 0.33072492
-0.29271787 0.01665362 0.11284006 -0.22538556 -0.2691481 0.23225495 -0.3080635 0.30991077
0.26366344 -0.08884414 -0.34662426 -0.09587439 -0.07743788 0.0073462906 0.14291982 0.39025664
-0.2843247 -0.23334102 -0.07831391 -0.07931548 -0.21617667 -0.21292713 0.05052781 -0.2976666
-0.2124749 0.13838875 0.20808192 0.1789084 -0.39337024 -0.1095924 -0.13723932 0.02776327
0.072390996 0.21614647 -0.07541462 -0.2648173 -0.17062704 -0.032188434 -0.026751002 -0.20747018
0.39927942 -0.00030628842 -0.40902498 -0.31653368 0.37985238 -0.17477524 -0.06900102 -0.08954167
-0.48946798 0.35424843 -0.032518666 0.18662106 -0.15552764 0.29875454 0.31633055 0.12256426
0.23892085 -0.3526661 -0.4189505 -0.20387888 0.036717724 0.31595135 -0.102985464 0.27184153
0.2466971 0.29057917 -0.22197084 -0.17717092 0.32570195 -0.039518952 -0.17634873 -0.21027462
-0.26503024 0.015066266 -0.29053098 0.04970658 0.32405895 -0.19925854 0.008050262 -0.21417873
-0.30791956 -0.08886226 -0.16235544 -0.16073224 -0.30684313 0.31050825 -0.14805648 0.5052686
0.32958257 0.23055677 0.16704576 0.1686402 -0.20736532 -0.012678397 -0.40789255 0.13828409
-0.023663944 0.0030025642 -0.095558204 0.23261134 0.119762816 -0.33277807 -0.25876954 -0.15887931
0.24161398 0.22757377 -0.19659957 0.6629917 -0.13033804 0.123513065 -0.3321275 0.055302516
-0.10508546 0.119703576 0.008013849 -0.090750895 -0.0037864298 0.067825794 0.07139128 -0.019191425
-0.5208267 0.029793223 0.22179954 0.029835463 0.31765437 0.30936238 -0.2728711 0.08807134
0.30101407 0.2192835
00000000: ad19 ff3d ff54 82be c19e 493e 6008 87bd
00000010: d439 bfbe 062f 1f3e 761e ccbe 869a a4be
00000020: 4437 d83d 69d7 09bd 90fc 81be e013 d9bd
00000030: 4f3d 8cbe 2f7a 80be b76c 89be 47b7 7f3f
00000040: 8bd3 65be 129c 953e d276 b13e 9b0f 98be
00000050: 1f2d 5f3e fb1f b43d 18a7 bb3d 7421 a03e
00000060: 5030 aebe 60db 7f3e 060a 7c3e 4368 44bd
00000070: 03aa 223e e6c6 eebe e8b9 603e c754 a93e
00000080: 1edf 95be 2c6d 883c b018 e73d 79cb 66be
00000090: c8cd 89be 3ed4 6d3e 80ba 9dbe a0ac 9e3e
000000a0: e5fe 863e ebf3 b5bd bc78 b1be cb59 c4bd
000000b0: c097 9ebd 27b9 f03b 9359 123e b8cf c73e
000000c0: 0293 91be f3f0 6ebe 0b63 a0bd 2870 a2bd
000000d0: 6b5d 5dbe 9209 5abe 40f6 4e3d c267 98be
000000e0: 0593 59be c8b5 0d3e 6d13 553e c333 373e
000000f0: d367 c9be fb71 e0bd 7788 0cbe cc6f e33c
00000100: bb41 943d 8055 5d3e fb72 9abd 2296 87be
00000110: dbb8 2ebe 05d8 03bd eb24 dbbc 1073 54be
00000120: 5a6e cc3e 5695 a0b9 b96b d1be b410 a2be
00000130: 037c c23e 48f8 32be 6850 8dbd a061 b7bd
00000140: 8c9b fabe 0d60 b53e 4b32 05bd 9719 3f3e
00000150: a342 1fbe 5bf6 983e 14f6 a13e f902 fb3d
00000160: aba7 743e a790 b4be ae80 d6be a0c5 50be
00000170: 5365 163d 60c4 a13e 0bea d2bd d02e 8b3e
00000180: 2a9e 7c3e cbc6 943e 534c 63be 4b6c 35be
00000190: 68c2 a63e a0de 21bd c394 34be 3b52 57be
000001a0: 0bb2 87be 80d8 763c 7ac0 94be 2099 4b3d
000001b0: 0eeb a53e 6e0a 4cbe 3fe5 033c ab51 5bbe
000001c0: a2a7 9dbe 6bfd b5bd 8140 26be fe96 24be
000001d0: 8b1a 9dbe f0fa 9e3e 1e9c 17be 4859 013f
000001e0: 0cbf a83e 1317 6c3e 0b0e 2b3e 04b0 2c3e
000001f0: 9357 54be 0db9 4fbc 4bd7 d0be 589a 0d3e
00000200: e3da c1bc abc6 443b 05b4 c3bd ab31 6e3e
00000210: 3546 f53d e361 aabe 717d 84be 42b1 22be
00000220: a869 773e 1909 693e 6651 49be d3b9 293f
00000230: 5677 05be 6bf4 fc3d 9e0c aabe e484 623d
00000240: 0c37 d7bd 2627 f53d 854c 033c 9bdb b9bd
00000250: c025 78bb 40e8 8a3d 9735 923d 5637 9dbc
00000260: e654 05bf eb10 f43c 6b1f 633e 8069 f43c
00000270: 98a3 a23e bf64 9e3e c3b5 8bbe bf5e b43d
00000280: 841e 9a3e db8b 603e

trainable_layers.3.conditioner.layers.0.bias f4 [18]
0.3761875 0.38519162 0.47572064 -0.3423598 -0.03417639 0.4652333 0.47668684 0.5410551
-0.010196429 0.3362999 0.15277669 -0.11410372 0.46718776 0.033748776 -0.13557805 -0.21171707
0.4245195 0.44788942
00000000: a69b c03e d637 c53e a891 f33e c949 afbe
00000010: 8bfc 0bbd 0f33 ee3e 4c10 f43e 9682 0a3f
00000020: ec0e 27bc 802f ac3e 7e71 1c3e 36af e9bd
00000030: 3c33 ef3e 283c 0a3d f9d4 0abe 5ccc 58be
00000040: 9f5a d93e c351 e53e

trainable_layers.3.conditioner.layers.1.weight f4 [9, 18]
-0.18269487 -0.076587655 -0.123278946 0.15012975 -0.09430894 -0.10282328 -0.23211823 0.007455075
0.20639814 -0.0013010732 -0.13124616 -0.1481559 0.10356369 -0.19218497 0.08878939 -0.001979778
0.087378256 0.01735402 -0.1728609 -1.0602204 0.02170103 0.18997993 -0.10070453 0.11347449
0.088005304 0.05830841 0.42766353 0.5835933 0.13242677 0.043652136 0.19198255 0.08143732
1.0408155 -0.95818406 0.31124696 0.09702541 0.0055927183 0.083864056 0.10994194 0.00035566321
0.088605545 0.11549731 -0.10264756 -0.22777219 -0.09735849 0.17697676 0.13663939 -0.15673545
0.04165952 0.15685931 -0.035057973 -0.10318776 -0.11903439 -0.19505446 0.18449852 0.20825893
0.37647995 -0.0059719468 0.20650391 0.2576647 0.29119235 0.18466476 -0.24280877 0.07074651
-0.18839927 -0.15491134 0.09375743 0.29620096 0.49203774 -0.1371004 0.167746 0.41158488
0.10165719 0.18171714 0.22824828 0.07887971 0.0009851404 0.001223523 -0.022205966 -0.05587183
-0.16566901 -0.08186539 0.10236199 0.13481271 0.09882812 0.20654094 -0.14405386 -0.20430407
-0.06570385 -0.104921885 -0.043622844 0.53019214 0.24190512 -0.10667339 0.44300696 -0.31844407
-0.047588203 -0.23527789 -0.27334693 0.09075218 1.0907558 -0.018891005 -0.13575687 0.5614451
0.16427363 -0.054101195 -0.47609818 0.35229337 -0.21658656 -0.06489707 0.16379662 0.16235231
0.06393458 -0.13750163 -0.23386915 -0.074361175 -0.08704901 0.11224203 -0.17472589 0.09858254
-0.055464886 -0.060714953 -0.05106043 0.02201431 0.14616945 -0.069889285 0.22779904 0.15279965
0.12093944 0.56095487 0.0013462739 0.053387392 0.0007178009 0.07080528 0.004039306 -0.044699695
0.261391 0.23436989 0.31659493 -0.18269369 -0.09224783 0.16674241 0.12911227 -0.32689226
-0.025932029 -0.10671658 0.14367886 0.18627314 0.06292752 0.17962243 -0.19155031 0.16063125
0.02612492 0.036841374 -0.17608266 -0.048342492 0.21410733 -0.101368085 0.1767963 -0.16246761
-0.123185515 -0.14576429
00000000: 5d14 3bbe fdd9 9cbd ac79 fcbd 9dbb 193e
00000010: 0c25 c1bd 0395 d2bd 67b0 6dbe b449 f43b
00000020: 095a 533e c688 aaba 6565 06be 2eb6 17be
00000030: 3319 d43d 23cc 44be 36d7 b53d 2abf 01bb
00000040: 5ff3 b23d 052a 8e3c 7302 31be 4db5 87bf
00000050: 5cc6 b13c 198a 423e 2d3e cebd 5065 e83d
00000060: 203c b43d cdd4 6e3d b7f6 da3e 5f66 153f
00000070: e29a 073e 95cc 323d 1397 443e 9cc8 a63d
00000080: 7139 853f 8d4b 75bf c35b 9f3e 42b5 c63d
00000090: 1f43 b73b ebc0 ab3d 3d29 e13d 4f78 ba39
000000a0: d376 b53d db89 ec3d e238 d2bd 1d3d 69be
000000b0: e363 c7bd 6539 353e 32eb 0b3e 427f 20be
000000c0: 2ca3 2a3d ba9f 203e f398 0fbd 1b54 d3bd
000000d0: 4dc8 f3bd 5bbc 47be 2eed 3c3e d441 553e
000000e0: fbc1 c03e 52b0 c3bb c375 533e a1ec 833e
000000f0: 2a17 953e c218 3d3e dda2 78be 8ce3 903d
00000100: bdeb 40be 14a1 1ebe e503 c03d a7a7 973e
00000110: 5fec fb3e 0c64 0cbe 9cc5 2b3e 41bb d23e
00000120: a531 d03d 0f14 3a3e ebb9 693e af8b a13d
00000130: d41f 813a 9f5e a03a 49e9 b5bc dcd9 64bd
00000140: 23a5 29be 0ba9 a7bd 2aa3 d13d 580c 0a3e
00000150: 6666 ca3d 787f 533e db82 13be 1635 51be
00000160: bd8f 86bd 49e1 d6bd dead 32bd acba 073f
00000170: fab5 773e 9477 dabd cfd1 e23e 1a0b a3be
00000180: d9eb 42bd b0ec 70be 21f4 8bbe 47dc b93d
00000190: e39d 8b3f 4fc1 9abc d903 0bbe deba 0f3f
000001a0: 5937 283e 3799 5dbd 24c3 f3be cc5f b43e
000001b0: dec8 5dbe c1e8 84bd 4dba 273e af3f 263e
000001c0: 22f0 823d 3acd 0cbe 657b 6fbe ac4a 98bd
000001d0: c046 b2bd 26df e53d 58eb 32be a5e5 c93d
000001e0: 262f 63bd 3eb0 78bd be24 51bd 5b57 b43c
000001f0: 72ad 153e 1d22 8fbd 2744 693e 8377 1c3e
00000200: 19af f73d bd9a 0f3f 7575 b03a bdac 5a3d
00000210: ce2a 3c3a 5c02 913d 285c 843b 0717 37bd
00000220: 0bd5 853e a9fe 6f3e bb18 a23e 0e14 3bbe
00000230: 6eec bcbd 86be 2a3e 0236 043e 6c5e a7be
00000240: 686f d4bc 398e dabd 8d20 133e 63be 3e3e
00000250: 25e0 803d f1ee 373e c425 44be 857c 243e
00000260: ee03 d63c fbe6 163d 034f 34be c702 46bd
00000270: f43e 5b3e 129a cfbd 170a 353e e95d 26be
00000280: b048 fcbd 3c43 15be

trainable_layers.3.conditioner.layers.1.bias f4 [9]
-0.13177274 0.33860505 -0.07871011 0.023499586 -0.08476082 -0.3158133 -0.11616107 0.013714392
0.04819509
00000000: 6fef 06be a45d ad3e c432 a1bd 3482 c03c
00000010: 1597 adbd 48b2 a1be dbe5 edbd 54b2 603c
00000020: 3768 453d

trainable_layers.4.scale f4 [9]
0.4230231 0.2300951 0.21888445 0.58284223 0.24626096 -0.2876475 -0.1515856 -0.35993627
-0.26974404
00000000: 7c96 d83e 0d9e 6b3e 3f23 603e 2635 153f
00000010: d52b 7c3e 8846 93be 4139 1bbe 9149 b8be
00000020: e41b 8abe
